models/mnist/checkpointFCNet1.pt (torch, 743943 bytes, 10 tensors)

fc1.weight f4 [200, 784]
000000 96 49 83 3d ba 90 19 3d a2 23 44 3c 58 e4 43 3d
       0.0641052 0.037491538 0.011971386 0.047825187
000010 a4 4e 5e 3d d6 92 69 3d a0 7b a5 3c 1a 0d 86 3d
       0.054274216 0.0570248 0.02020055 0.06545468
000020 10 44 9a 3c 94 9b 28 3c 22 4b 06 3d 11 9c 70 3b
       0.018831283 0.010290999 0.032786496 0.0036714117
000030 38 14 86 3d b2 05 3c 3d 04 a3 6a 3c 20 d7 80 3d
       0.06546825 0.04590387 0.0143210925 0.06291032
000040 f0 06 02 3d b0 a8 a4 3c ae 93 80 3d 40 16 b6 3c
       0.031744897 0.020099968 0.06278168 0.022227407
000050 d6 48 b3 3c 18 10 ba 3c fa cf c8 3c 0e f0 46 3d
       0.021885317 0.022712752 0.024513233 0.048568778
000060 b6 ab 0d 3c a6 51 38 3d 54 f3 27 3d b8 98 34 3d
       0.008646896 0.04499974 0.04100354 0.044090956
000070 a5 fd 8b 3d 02 c9 13 3d 95 26 7f 3d 9c 72 1c 3d
       0.06835488 0.036080368 0.062292654 0.038195238
000080 4c 64 2e 3c f0 e2 8c 3d 96 0d 00 3c 4d de 30 ba
       0.01064403 0.068792224 0.007815739 -0.00067469926
000090 03 63 05 3d c1 ab 8a 3d 42 77 5a 3c 1f 49 35 3d
       0.032565128 0.06771041 0.013334097 0.044259187
0000a0 e7 6d 2c 3d 6e 2e 3b 3b 0e 37 4f 3d 36 b3 83 3b
       0.042097 0.002856161 0.050589614 0.0040191663
0000b0 dc e0 5d 3c a0 44 fc 3c 1a 05 35 3d 79 03 be 3b
       0.01354238 0.030794442 0.04419432 0.005798754
0000c0 b2 1a 70 3d 5a 63 8c 3b 4d d8 11 3d 14 8d 4c 3d
       0.05861921 0.0042843046 0.03560667 0.04993923
0000d0 9a 6e d5 3c 24 6e 62 3d 75 ce 31 3b 9a 5a 35 3d
       0.026053715 0.05528082 0.0027131115 0.044275858
0000e0 b9 11 0a 3b 9a 97 a9 3c e6 b0 51 3d 8f a4 33 3d
       0.0021067692 0.020702172 0.051194094 0.043858107
0000f0 16 94 2a 3d 02 44 85 3d bb 59 18 3c 6e f8 c9 3c
       0.041645132 0.06507112 0.009298737 0.024654593
000100 cb a8 b2 3c 16 ce 0c 3c a6 83 8c 3c 57 64 d3 3b
       0.021809002 0.008594057 0.017152619 0.0064511704
000110 ec 75 1b 3d a8 4b 51 3d 3d 79 84 3d 43 76 4f 3d
       0.037954256 0.051097542 0.06468437 0.050649893
000120 f6 7f 26 3d 11 f7 73 3c 33 ac 81 3c 0a 1a e3 3c
       0.040649377 0.014890448 0.015829181 0.027722377
000130 7b f2 82 3c c3 63 1b 3d 69 02 9d 3b ec bd 04 3d
       0.015984764 0.037936937 0.004791547 0.032407686
000140 7f 2d 4a 3d a2 ca cf 3c ac e2 23 3c c4 3a 48 3d
       0.049359795 0.025365178 0.010002773 0.04888417
000150 75 cc a1 3b 46 46 3c 3d 5c b4 52 3d 59 42 33 3d
       0.0049377033 0.045965455 0.051441535 0.043764446
000160 f3 b1 8c 3d 5e 89 b6 3c 18 cb 17 3c 4f 0d 9d 3c
       0.068698786 0.022282299 0.00926473 0.019171385
000170 31 c1 20 3c 5d 71 3c bc 97 eb ad 3c f4 fd c9 3a
       0.009811685 -0.011501637 0.021230502 0.0015410767
000180 79 90 99 bc a4 50 26 3c 36 67 96 3b 36 a8 08 3d
       -0.018745648 0.010151062 0.0045899404 0.033363543
000190 eb ff 2b 3d 33 e7 7f 3d 6e 1e 20 3c 35 e0 39 3d
       0.04199211 0.062476348 0.00977288 0.045379836
0001a0 6a 72 62 3d a7 a9 42 3d c2 3b 02 3d 33 57 ef 3c
       0.055284895 0.047525074 0.03179527 0.029216385
0001b0 29 7a 20 3c 8d 5b 66 3d b0 74 ec 3c 1e d3 6b 3d
       0.00979475 0.056239653 0.028864235 0.057574384
0001c0 ca fa 4c 3d 82 04 3a 3d 8d 68 75 3d c7 dd 17 3c
       0.05004386 0.045414455 0.05991416 0.009269184
0001d0 fa 7c ec 3c dd 52 4f 3c c8 20 1f 3d 56 bb 7d 3b
       0.028868187 0.0126540335 0.038849622 0.0038716397
0001e0 95 a9 71 bd 0e dd 20 bd 08 c4 be bd ef 53 74 bd
       -0.058999617 -0.039273314 -0.09314734 -0.059650358
0001f0 ea 7f 0f be 7a 22 c6 bd fa d4 44 bd 5f 7b 3c b9
       -0.14013639 -0.09674545 -0.048054673 -0.00017975036
000200 f1 d9 45 bd a6 d7 3c 3d e8 50 d4 3c 44 fb 47 3d
       -0.04830355 0.046104096 0.025917485 0.04882361
000210 b5 0a e6 3c c0 02 d4 3c b2 3e fa 3b b0 1f 1b 3d
       0.028081277 0.025880218 0.0076368684 0.037872016
000220 10 82 32 3d 5c 49 2f 3d 8e 99 07 3d b2 89 64 3d
       0.04358107 0.04279457 0.033105426 0.05579538
000230 fc fb bc 3c bf ae 82 3d e0 ca 81 3c 43 54 4a 3c
       0.023069374 0.063809864 0.015843809 0.012349191
000240 33 0d 67 3d 01 f8 ad 3c 1c 1a 27 bd 17 23 2a bd
       0.056409072 0.021236422 -0.040796384 -0.04153737
000250 60 44 73 bd 9d d2 a4 bd 7a f5 e7 bd e0 a0 2d bd
       -0.05939138 -0.08047984 -0.11326118 -0.04238975
000260 52 0c ed bc 52 3b 11 bd 39 0b 68 3c 43 75 14 3c
       -0.028936539 -0.035456963 0.014162832 0.0090611605
000270 f3 a1 cc 3c e3 48 35 3c fe 93 53 3d e1 40 a4 3c
       0.024979567 0.011064741 0.05165481 0.020050468
000280 0b 6f 4b 3c 01 8b f2 3b 33 ca 36 3d 4f 58 15 3c
       0.012416611 0.0074018245 0.044626426 0.009115293
000290 37 c2 9a bc 84 95 d8 bc 0f d3 82 3d e0 8c 42 3d
       -0.018891437 -0.026438482 0.063879125 0.04749763
0002a0 48 64 87 3c 67 d0 2f 3d 11 9b ac 3b 3a 90 5f 3d
       0.01652731 0.042923357 0.005267509 0.054580905
0002b0 84 fb 14 3d 1e 67 6f bb c1 b9 7d bd 28 21 a6 bd
       0.036372676 -0.0036529968 -0.061944727 -0.08111793
0002c0 3c da 01 be c0 b8 d0 bd c9 fd 8f bd 01 3e 9b bd
       -0.12680906 -0.10191488 -0.070308276 -0.07580186
0002d0 3d 7c 1d bd 95 dc 29 3d 4c 33 80 3d dd a0 48 3a
       -0.03844856 0.04147013 0.06259784 0.0007653365
0002e0 db 3c 01 bd c5 aa 43 bd 24 84 5e 3c 8d 46 1e 3b
       -0.031552177 -0.04777028 0.0135813095 0.0024150938
0002f0 98 d7 35 3d b6 54 2e 3d 8f 21 b6 3c e9 22 4d 3b
       0.04439506 0.042561255 0.022232799 0.0031301326
000300 3c 8d a2 bb 07 8e a3 3c cf a8 1c 3d 5c 9d 64 3d
       -0.004960684 0.019965185 0.038246926 0.055814132
000310 fe 9a d4 3c 6a a9 78 3d d5 1c 02 3c 91 97 37 3d
       0.025952812 0.06070844 0.007941444 0.04482228
000320 8e b9 d5 3c 8a f0 c1 bc d4 5a 3c bd 90 d5 68 bd
       0.026089456 -0.023674268 -0.045985058 -0.056844294
000330 fe 71 16 be b3 51 8c bd c9 9c 8c bd da 1f f8 3b
       -0.14691922 -0.068515204 -0.06865842 0.0075721564
000340 48 b6 85 3d ac 0c 58 3d 43 3a 26 3d 6c 08 f2 3c
       0.06528908 0.05274646 0.040582906 0.029545031
000350 11 b3 7a 3b 4b e6 89 3c 5c 2c 86 3d 2a c6 36 3d
       0.0038253705 0.016833445 0.0655143 0.044622578
000360 4d c6 5a bb 84 b5 19 3d ea 45 1b 3d 2a 28 88 3d
       -0.0033382357 0.037526622 0.037908472 0.06648286
000370 fc 7c 09 3d dd 04 3c 3c 75 1c ed bb e3 da 63 3d
       0.03356646 0.011475769 -0.0072360584 0.05562867
000380 64 de 86 3c 3c 18 88 3d ff 8d e3 3b 90 ad 12 3d
       0.016463466 0.06645247 0.0069444175 0.035810053
000390 cd dc b7 bc a2 cc 85 bb d3 47 7f bd 27 fe 9e bd
       -0.022444153 -0.004083232 -0.062324356 -0.077633195
0003a0 a4 f9 ac bd c3 d5 f9 bd b1 2a 71 bd 44 c1 60 3d
       -0.08446053 -0.12198975 -0.058878604 0.054871812
0003b0 63 fe 9f 3d c7 48 9f 3d ef db 9d 3d 74 f2 66 3d
       0.07812192 0.07777553 0.07707965 0.056383565
0003c0 34 65 d3 3d 37 4e 3b 3d c9 e8 84 3d 97 fb 49 3d
       0.10322037 0.04572889 0.06489713 0.0493122
0003d0 09 30 94 3d a7 89 b9 3c d7 5c 56 3d db 4f d5 3d
       0.072357245 0.022648646 0.052334633 0.10415622
0003e0 4a 67 b3 3d db 47 2c 3d c3 c1 5f 3d 65 a8 a7 3c
       0.08759935 0.042060714 0.054628145 0.020466039
0003f0 31 b6 6b 3d 90 ad e8 3b 84 51 37 3d 75 23 ee 3c
       0.0575468 0.0071007684 0.044755474 0.029069642

fc1.bias f4 [200]
000000 cb 2c 4d bd 58 13 98 bd 63 f5 c7 bd 5b bd 32 bc
       -0.050091546 -0.074255645 -0.09763601 -0.010909404
000010 51 c7 66 3d a7 c1 47 bc 74 80 ad bd ee 73 76 bd
       0.056342427 -0.012192166 -0.08471766 -0.060169153
000020 01 4f 1f 3d 1e 31 61 bd 58 e6 57 bd ea 79 1b bc
       0.038893703 -0.054978482 -0.052709907 -0.009489516
000030 aa da e7 3b e6 b8 8d bc 5a 53 9e bd d6 e2 db bd
       0.0070756273 -0.01730008 -0.07730742 -0.10736625
000040 e6 db 8a bd 3a ab 79 bd cc b3 95 bd 11 d6 88 bd
       -0.067802235 -0.06095431 -0.07309684 -0.06681455
000050 b4 e6 2a bd c8 d8 84 bd 40 43 d1 bb 4a 99 a5 bc
       -0.041723922 -0.0648666 -0.0063861907 -0.020214695
000060 a3 ce 6a bd 03 4e 80 3c 24 8b f2 3b b7 d3 bc bb
       -0.05732597 0.015662199 0.0074018408 -0.005762543
000070 e8 7f 00 bd 15 2b 93 bd 3a 66 9c bd 15 fb b3 bd
       -0.03137198 -0.071859516 -0.07636686 -0.087881245
000080 f0 17 82 bd 52 9a b5 bb 48 97 72 bd bf 8f e5 bc
       -0.06352222 -0.005542078 -0.059226304 -0.028022645
000090 a4 17 11 3d 28 c3 2b bd 14 ec 68 bd 5a 84 1d bd
       0.035422936 -0.041934162 -0.056865767 -0.0384563
0000a0 5e c7 2d bd 28 c3 99 3d 22 f3 a9 3d f4 8a 45 bd
       -0.04242646 0.07507926 0.08298327 -0.04822822
0000b0 c6 03 95 3d ca 73 bc 3d ec 9c 2d bd 75 3e 2d bd
       0.0727611 0.092017725 -0.04238598 -0.04229589
0000c0 87 e9 6a bd d5 cb 21 3c f8 02 89 bd dc e0 87 bc
       -0.057351615 0.0098752575 -0.06690019 -0.016586713
0000d0 15 07 3f 3d 3a b2 5a bd 96 4f 3e 3d de ea 84 3d
       0.046637613 -0.053392626 0.046462618 0.0649011
0000e0 32 26 93 3c b7 66 01 bd a0 1c 6c 3c ed 6f f6 bc
       0.017962549 -0.031592097 0.014411122 -0.030082667
0000f0 c2 52 5c 3b 5a f6 27 3c e3 4f e3 bd f4 9f 7d bc
       0.0033618663 0.010251606 -0.110992216 -0.01548003
000100 d5 7f 8f bd 9c 0f e4 3c 6c 01 02 be 9d a4 04 3d
       -0.07006804 0.027839474 -0.12695855 0.03238355
000110 10 7e 2c bd f3 ac db 3c d0 f4 7f 3c b5 4a 77 bd
       -0.04211241 0.026815867 0.015622333 -0.06037398
000120 aa 7c 4e bd f0 f0 c1 3d 71 53 ea bc dc c7 a8 bc
       -0.050411858 0.09469783 -0.028604241 -0.020603113
000130 27 0a 3e 3c a8 7c b4 bd 6f 05 d5 bc 6b 93 3c 3d
       0.0115991 -0.08812839 -0.026003568 0.046039026
000140 7e 87 ff bc dd 1e ad bd 15 c4 fc 3b 1f fa 15 bd
       -0.031192537 -0.08453152 0.0077138045 -0.036615487
000150 12 c2 04 bd 26 ab c6 bc 06 08 df bd 09 bd 3c 3c
       -0.032411642 -0.024251532 -0.10890202 0.011519679
000160 c5 47 e1 b8 84 06 31 3d e0 28 d0 3d d4 73 fe 3c
       -0.00010742204 0.043219104 0.10164046 0.03106109
000170 f1 b7 e2 bb b4 84 96 3d e5 21 b7 bc 64 05 9d bd
       -0.0069189 0.0734953 -0.02235503 -0.07667044
000180 bb 28 09 3b 0d 73 a2 3b 2a 85 d2 bc 25 95 19 bc
       0.0020928818 0.004957563 -0.025698263 -0.009373938
000190 cd 14 8e bd b0 c6 3a bd 0b 5e 44 bd 64 59 b5 bb
       -0.06937561 -0.04559964 -0.04794125 -0.005534338
0001a0 77 f9 10 bd 5c aa c1 3c 31 9c f4 3d 43 89 27 bd
       -0.03539416 0.023640804 0.11943854 -0.040902387
0001b0 6b 39 94 bd bb 13 3e bd 78 fa 39 bd 03 ac 8c 3c
       -0.07237514 -0.046405535 -0.04540488 0.017171865
0001c0 d3 7a d6 3c 66 da 0c bd ca fa 87 bd 33 6f 40 3d
       0.026181614 -0.03438797 -0.06639631 0.046981048
0001d0 89 79 81 bd 12 7c 81 3d d8 fa bc bc c7 cf 16 3b
       -0.06322009 0.06322493 -0.02306883 0.0023012029
0001e0 61 ba e2 bc 0e 6b 0e bc 54 43 da bd 80 d6 3e 3c
       -0.027676763 -0.008692516 -0.10657373 0.0116478205
0001f0 0e 5c 47 3d e1 37 a4 3d f9 11 ee 3b c0 42 cb bc
       0.048671775 0.080184706 0.007265326 -0.024812102
000200 40 9e e8 3d 64 e6 b6 3c 53 4a e8 bc 15 cb 23 bd
       0.11358309 0.022326656 -0.028355753 -0.039988596
000210 ea b6 65 bc e6 de 54 3b 9f a4 61 3d 20 81 4a 3d
       -0.014020661 0.003248149 0.055088636 0.04943955
000220 02 25 83 3c 84 55 7b bd 39 07 56 bc bc 90 88 bd
       0.016008858 -0.06136085 -0.013063245 -0.06668231
000230 cd f0 81 bb 76 09 e4 bb 63 c5 65 bb bb 19 23 bd
       -0.0039654733 -0.0069591356 -0.0035060279 -0.03981946
000240 78 2e 8d bd e6 b0 78 bd 6b cc c4 bc 60 7d 98 bc
       -0.06893629 -0.06071558 -0.024023255 -0.018614471
000250 5d fe 60 bd a9 c2 cf 3b ef df ac bc 8e 52 89 bc
       -0.05493008 0.006340344 -0.021102874 -0.016762998
000260 08 2d 3a bd a8 0f 56 bd 0b a1 23 bc 67 69 79 bb
       -0.0454531 -0.052261025 -0.009987126 -0.003805721
000270 16 f3 74 bc fa 74 1f bd 7e 16 0b 3c d3 b1 15 3e
       -0.014950534 -0.038929917 0.008489249 0.14618616
000280 5e e6 99 3d 92 c2 a4 bd 64 dd 97 3d 20 87 5b bd
       0.07514642 -0.08044924 0.07415274 -0.053595662
000290 3d aa d3 bd 2f 3c 83 bd d2 82 3c bb 81 91 4b 3c
       -0.10335205 -0.064079635 -0.0028764498 0.012424828
0002a0 c0 7a 14 3b 34 e5 51 3c 0f cb f0 bc e1 07 6d 3a
       0.0022656173 0.012810994 -0.0293937 0.00090420066
0002b0 17 58 49 bd 82 fb b3 3b 2b 1b 91 3c 91 81 83 bc
       -0.049156275 0.0054926286 0.01771315 -0.016052993
0002c0 7c 0e 70 3c 87 e8 be 3b 96 e5 82 3d 8a 0e 5d bd
       0.014651891 0.0058260593 0.06391446 -0.053968944
0002d0 4f af 3b bd e9 8b 2d 3d 1e cb c8 3d e8 a1 90 3d
       -0.045821484 0.042369757 0.098043665 0.07062131
0002e0 84 d9 c2 bc 3f 1b 3e bd 12 a3 4d bd 24 81 70 3d
       -0.02378536 -0.046412703 -0.050204344 0.058716908
0002f0 06 3d cd b9 1e de c3 3d 49 44 03 bd d9 64 15 3b
       -0.00039146113 0.0956385 -0.032047544 0.0022795706
000300 a3 2c 49 bd fa f6 eb 3c 4b 4c b4 bc 5d 0b 95 ba
       -0.049114835 0.028804291 -0.022009036 -0.0011371184
000310 77 18 c8 bd d8 14 af 39 60 d7 b3 bd 7e 53 55 3d
       -0.09770291 0.0003339413 -0.08781314 0.052081577

fc2.weight f4 [100, 200]
000000 eb b6 26 bd 14 2b df bc d0 19 1d 3e d2 d5 35 3e
       -0.040701788 -0.027242221 0.15341878 0.17757347
000010 6b 59 32 3e 92 0f cb 3c db 38 93 be d9 ae b7 bd
       0.17416923 0.024787698 -0.28754315 -0.089688964
000020 0e 4e df 3d b6 a9 18 bd 1a b3 77 3d 6b 2d 53 bd
       0.109035596 -0.037271224 0.06047354 -0.051556986
000030 59 97 49 bd 99 56 84 bd 4a 02 82 bd 3c 96 4b 3e
       -0.049216602 -0.0646183 -0.06348093 0.19881529
000040 69 68 e9 3d 48 64 b8 3d 1d 79 69 3a 91 bc be bd
       0.11396868 0.09003502 0.0008906292 -0.0931331
000050 1b 32 96 3d 6d ad a7 3e 59 34 13 be 7f d8 50 3b
       0.073337756 0.327495 -0.14375438 0.0031867323
000060 da d0 72 3c cb f3 5e 3d de 08 44 3d 25 d0 d9 bc
       0.014820302 0.054431718 0.04786002 -0.026588509
000070 5a 1c ba bd 01 77 07 3d 76 e6 2a 3d 44 6b 85 3e
       -0.09087439 0.033072475 0.04172369 0.260584
000080 0f bc 34 3e 99 e5 50 bd e0 be 64 be bd ad 0d bd
       0.17649864 -0.05100021 -0.22338438 -0.034589518
000090 13 24 c7 bd 82 d4 78 bc 30 af 42 bd 15 e3 22 3e
       -0.097236775 -0.015187385 -0.047530353 0.15906937
0000a0 a5 a2 e0 3d 27 37 e6 bd 00 7d e9 bd 7e 62 cb 3d
       0.10968522 -0.11240988 -0.11400795 0.09930895
0000b0 79 1d 27 be e9 2a df 3d 84 33 a9 3c 9e d7 3c 3b
       -0.16319837 0.10896856 0.020654447 0.0028815041
0000c0 f4 7b 0d 3e 6c 00 cc bd e7 73 d5 bd 63 41 46 3d
       0.13816816 -0.09961018 -0.10422497 0.0484022
0000d0 53 5d 23 3d 1d f2 15 bd 90 62 16 be 6d 5a b9 3d
       0.039883923 -0.03660785 -0.14686036 0.090504505
0000e0 9b 5d d7 3d 13 00 95 3d 28 b7 1e be b5 80 f5 bb
       0.10515901 0.07275405 -0.15499556 -0.0074921497
0000f0 de 27 78 3d f8 ef 6a 3c 2f 33 f3 bd 37 90 76 3d
       0.060584895 0.01433944 -0.11874997 0.060196128
000100 17 18 84 bd 0f 34 b4 bd 66 09 ca bd 8f 3c f4 3d
       -0.06449907 -0.08798992 -0.09865074 0.11925613
000110 9e 84 b8 bd d9 5f 03 3e 80 e7 23 3c f1 92 87 bd
       -0.0900967 0.12829532 0.010003924 -0.06619824
000120 16 f5 f2 3d 56 7a f1 3d 04 38 2f 3d 80 0f 28 3d
       0.11863153 0.11790912 0.04277803 0.041030407
000130 1a 83 db bd 4f 6e 82 3d 0c 1a 78 bc 2c 56 95 3d
       -0.10718365 0.06368696 -0.015142929 0.072918266
000140 8b af 36 3d 77 58 96 bd 2b 0d 19 3d d0 82 48 3c
       0.044601005 -0.07341092 0.037366074 0.012238219
000150 c1 fd e5 bd 5f e9 46 3e 1d 90 93 bd ae 3a 56 bc
       -0.1123004 0.19424962 -0.07205222 -0.013075514
000160 74 35 13 bd e1 b7 6d be 90 6a c6 bd d9 c2 4c 3d
       -0.03593965 -0.23214675 -0.09688294 0.04999051
000170 ff 23 65 3d c8 bf 2a be 39 48 c7 bd fc ed 29 3e
       0.05594253 -0.16674721 -0.09730572 0.1659469
000180 18 d9 01 3e 69 3e 85 bd 67 85 12 bd 72 fb 4a 3d
       0.12680471 -0.065060444 -0.035771754 0.049556203
000190 b9 0b 8c bd fb 9f ee bd 58 8a a7 bc bc db e8 3c
       -0.068381734 -0.116516076 -0.02045171 0.02842509
0001a0 7f ee 94 3d 55 63 64 bd a8 9a f2 bd 22 06 4b 3d
       0.07272052 -0.055758793 -0.118459046 0.049566396
0001b0 2b 96 97 bd 23 05 95 3e 7d 92 eb bd 27 8d 51 be
       -0.07401689 0.29105482 -0.1150255 -0.20464002
0001c0 09 28 fb bc 41 e6 d3 bc 0e 34 f5 bd 0e 74 0f 3d
       -0.030658739 -0.02586663 -0.11972819 0.035022788
0001d0 4f 75 7a 3d eb d9 66 3e 06 7a 5d 3d 6c 2c 28 3d
       0.06114703 0.22544067 0.05407145 0.04105799
0001e0 72 5e ac 3d 81 c4 c5 3c 71 d9 28 3a 7b aa f1 3d
       0.084164515 0.024141552 0.00064410927 0.11800095
0001f0 55 5c 69 3d 1f a6 82 3d b0 8c 12 3e 20 76 5e 3d
       0.05697282 0.06379341 0.1431148 0.05431187
000200 56 88 87 3d 30 17 09 bd b6 71 f5 3d 82 36 c0 bd
       0.06617801 -0.03346938 0.11984579 -0.093853965
000210 d7 10 b0 3b dc 98 9a bd fd 72 aa bc 19 46 67 bc
       0.005373101 -0.07548687 -0.020806784 -0.014115834
000220 4a 50 d6 3c 55 46 67 3c 3b 07 db bd 31 a8 28 3e
       0.026161332 0.01411589 -0.106947385 0.1647041
000230 50 32 c5 bb 62 b0 88 3a e2 3b cd bc 5a 2d a2 bd
       -0.0060179606 0.0010428543 -0.025052968 -0.079188064
000240 3f d8 45 3e f1 fc 32 be 62 6e 16 be 34 11 6c bd
       0.19320773 -0.17479302 -0.14690545 -0.057633594
000250 cb eb 57 3e 3c b1 17 3c cb 11 a1 3d 77 b3 26 3e
       0.21086042 0.009258565 0.07864722 0.16279398
000260 2d 97 90 bd ae 26 bd 3d 15 b3 e0 3d 1e dc 99 bd
       -0.070600845 0.09235893 0.10971657 -0.07512687
000270 9e e3 a6 bd 66 bd 1e bd 20 ea b8 3c 6b 31 00 be
       -0.08148883 -0.038754843 0.022572577 -0.12518851
000280 da 74 12 bc c8 41 fe 3d 39 b7 19 be 76 2a 89 3c
       -0.008938992 0.124148905 -0.150113 0.01674388
000290 51 eb 6d be 6f bb 5e bc e4 52 4d 3e a1 c5 28 3e
       -0.23234297 -0.013594492 0.20051152 0.1648164
0002a0 c9 b0 a1 3c 75 49 a1 3d b3 73 9f bd 15 7d 53 3e
       0.019737618 0.07875339 -0.0778574 0.20653184
0002b0 3c c7 5c be a2 54 a4 bd 30 d1 95 3a 62 9f 08 bd
       -0.21560377 -0.08023955 0.0011430141 -0.033355124
0002c0 cc 60 a9 bd f5 af 55 3a 5b 7a f5 3d 67 f6 4e be
       -0.08270416 0.0008151525 0.11986228 -0.20211183
0002d0 90 28 38 be 5d fe de 3c 9e f8 a9 3d a5 78 0c be
       -0.17984223 0.0272209 0.08299373 -0.13717897
0002e0 4b 47 19 be a0 fa e8 3c 73 9a 9e 3d 1b ad e8 bc
       -0.14968602 0.02843982 0.077443026 -0.028402856
0002f0 0a 26 0e be 0b a3 b3 3d e2 2e dc 3c f0 31 5e 3d
       -0.13881698 0.08771332 0.026877824 0.054246843
000300 a7 26 66 bc b8 c0 48 3d 31 58 3f be b6 1f 6b 3d
       -0.014047301 0.049011916 -0.18685986 0.05740329
000310 a9 82 82 3e 1d 8c 90 3d b3 11 48 3e dc 36 d8 3c
       0.2549031 0.070579745 0.19538002 0.026393346
000320 07 37 c8 3d b3 d7 8b bd 75 36 92 39 bb a0 37 3b
       0.09776121 -0.06828251 0.00027887864 0.0028019387
000330 e4 c6 54 bd 5a 30 e7 3c 5d 33 f4 3d b1 eb cd 3d
       -0.05194749 0.028221298 0.11923859 0.1005472
000340 cf bc 46 bd 16 38 13 be a4 4d ea 3c d8 07 28 bd
       -0.048519906 -0.14376864 0.028601475 -0.041023105
000350 8c d0 ad bd b3 38 f1 3c 7f 0a da 3b b2 44 c9 bd
       -0.08487043 0.029445982 0.0066540833 -0.09827556
000360 5e 8d 64 bd c9 c4 86 bd 0b 23 74 3d 40 06 85 3b
       -0.05579888 -0.065805025 0.059603732 0.004059583
000370 a2 07 d5 3c f7 0b 94 bd 8d 8d ff 3c 5f bd 8a 3c
       0.026004616 -0.072288446 0.031195426 0.016936002
000380 15 de 15 be ea 11 9e 3d a4 b9 36 be 2a 04 c7 bd
       -0.14635499 0.077182606 -0.17844254 -0.09717591
000390 bd b7 58 3e 5b bc 95 be 0f 63 8d 3d 01 2c a3 3c
       0.2116384 -0.29245266 0.069036596 0.019918444
0003a0 70 bf 1e bd 59 32 a4 bd 9f e3 6b 3d b3 79 c7 3d
       -0.038756788 -0.080174156 0.057590123 0.09740009
0003b0 79 4f ad 3c d5 01 0b 3e c9 6e a7 bd a2 76 e3 bc
       0.02115606 0.13574918 -0.081754275 -0.02776653
0003c0 72 10 27 be 13 a7 a3 3d d5 f9 19 3d bb 35 c3 bd
       -0.16314867 0.07990851 0.037591774 -0.09531733
0003d0 fa ec 39 bd 7a dd 23 bd e9 16 14 3e 67 97 a3 bd
       -0.045392014 -0.04000614 0.14461865 -0.07987862
0003e0 43 45 b3 3c 51 a1 b9 bd 96 09 32 3d b2 02 6d 3d
       0.021883612 -0.09063972 0.043466173 0.0578639
0003f0 4e 84 22 3c 8b 1f 77 3d 13 e3 cb 3d 1a bd 1a 3d
       0.009919239 0.060332816 0.0995542 0.037777998

fc2.bias f4 [100]
000000 f6 12 49 3c 44 b2 26 bb 88 8d af 3d a9 75 8f bd
       0.012272587 -0.0025435844 0.08571917 -0.07004864
000010 86 40 8b bd dd f1 a7 bc 0e 96 50 bd ea 50 6d bd
       -0.06799416 -0.020501072 -0.050924353 -0.057938494
000020 41 52 b7 bd dd 2d 98 3d 1b c2 ce 3c 1d 82 87 bb
       -0.089512356 0.07430623 0.025239041 -0.0041353838
000030 41 3b 32 3d d6 8a 79 bd a4 60 f0 bc a3 9e 8a bc
       0.04351354 -0.06092342 -0.029342957 -0.016921347
000040 42 f0 f5 3c fb 49 70 bd 26 67 eb 3b 6c 11 46 bd
       0.03002179 -0.058664303 0.007183927 -0.04835646
000050 e0 f2 88 bc 66 a9 3e 3b 0c 74 91 bc f7 7f 05 3d
       -0.016717374 0.0029092669 -0.01775553 0.03259274
000060 61 98 72 bd 65 b1 d6 bc b4 d5 4a bd bb f3 c0 bd
       -0.05922735 -0.026207635 -0.04952021 -0.09421488
000070 d1 6c 83 3d ec 18 a9 bc d9 92 4f bc 5d 91 04 3d
       0.064172395 -0.020641766 -0.012669289 0.03236519
000080 66 2c 53 bc 33 8a 2f 3d df b9 83 3c e0 7e 93 3d
       -0.012889003 0.042856406 0.016079841 0.07201934
000090 0f b2 91 3d a6 42 39 bd a7 8f 37 3d f1 40 bb 3d
       0.0711404 -0.045229577 0.044814732 0.09143246
0000a0 1c 57 ff bc cc f2 c6 bc f6 ef 1a bd 46 7e 51 3c
       -0.031169467 -0.024285696 -0.0378265 0.012786454
0000b0 5e c4 72 39 75 70 c2 3c 1a c7 04 3c 29 43 79 bd
       0.00023152071 0.023735264 0.00810411 -0.060855065
0000c0 87 2b 69 bd 44 f4 03 3c c7 4a 52 3d 1a 05 2a 3d
       -0.056926277 0.008053843 0.051340844 0.04150877
0000d0 d7 cd 03 3c 94 02 9c bc 3d be 06 3d 2e 53 91 bd
       0.0080446815 -0.019044198 0.03289627 -0.070959434
0000e0 ad 37 d1 bc f0 20 ee bb bd c0 b8 bd 2a 69 4f ba
       -0.025539244 -0.00726711 -0.09021137 -0.0007912094
0000f0 c5 03 73 bd ae 4a a3 bc 13 59 a1 bb 65 41 24 bd
       -0.059329767 -0.019933071 -0.0049239486 -0.040101428
000100 b9 ef fb bc d8 1c 5d 3d 1d ef 01 3d 39 d3 85 bc
       -0.030753957 0.053982586 0.031722177 -0.01633607
000110 a3 3c 9f 3d 85 a8 ad 3b 63 16 3d bd f7 4c e5 3c
       0.077752374 0.00529963 -0.046163928 0.027990801
000120 53 d0 2a 3d da 62 07 bc 17 17 d1 bd 66 57 d7 ba
       0.04170258 -0.008263314 -0.10209482 -0.0016429245
000130 01 9c 0b bd 0f 1e ed bc 7c 4c 44 3d ac 68 48 bd
       -0.034084324 -0.028944997 0.047924504 -0.048927948
000140 c7 af 1a 3d f9 9a 07 3c 58 a4 1b 3d 92 d5 ea bc
       0.03776529 0.008276694 0.037998527 -0.028666291
000150 d4 7f dd 3c 39 83 9d 3d 78 3b ff 3a 35 88 cd bb
       0.027038492 0.07691044 0.0019472679 -0.0062723407
000160 82 35 1e bd 5c 00 7f bc 35 61 fe bc e9 de a3 bc
       -0.038625248 -0.0155640505 -0.031052211 -0.020003753
000170 1f ac 5a bd 50 0d d9 bd 18 55 7b 3d 8a 1c 75 bd
       -0.053386804 -0.10598242 0.06136045 -0.05984167
000180 5c 20 56 3c f5 20 c4 bb 11 a9 95 bd 22 63 2c 3d
       0.0130692385 -0.005985374 -0.073076375 0.042086728

fc3.weight f4 [60, 100]
000000 ed dd 5c 3d 57 cc 52 3e 1c 12 6f be 05 b3 0b be
       0.053922582 0.20585762 -0.23346752 -0.1364251
000010 d0 23 8c be d0 d8 a7 bc eb b7 8d 3e a8 f6 de 3b
       -0.27371073 -0.020489126 0.2767938 0.006804306
000020 b4 2a 8e be ad f5 6b be 69 0b 0d be 55 09 40 be
       -0.27766955 -0.23042937 -0.13773884 -0.1875356
000030 8f c7 bb 3d 74 c0 39 bd f3 37 3e be 39 4a e5 3c
       0.09168922 -0.045349553 -0.1857603 0.027989494
000040 ba 23 8a 3d 3e 19 95 3e 6f 8e 92 be 2f 03 82 bd
       0.067450956 0.2912082 -0.28624293 -0.063482635
000050 e7 a5 17 bd 33 92 5d 3e 93 76 ab 3d b2 d7 c3 be
       -0.03702345 0.21637802 0.083722256 -0.382505
000060 b9 99 a0 bd c0 f6 62 be 36 b8 3c 3e 8f 44 b4 bd
       -0.0784182 -0.2216444 0.18429646 -0.08802139
000070 61 27 1e bd a8 c8 a6 3c a1 39 fb 3c 83 2c bf bd
       -0.038611773 0.020359352 0.030667128 -0.09334662
000080 7a d9 3e bd 8f e0 9b be de 51 e2 bd 3b b7 9f 3d
       -0.04659412 -0.30444762 -0.11050771 0.0779862
000090 7c 46 b6 bd 7e 39 b3 bd 88 a5 01 3e 5b 12 d4 be
       -0.089001626 -0.087512 0.12660801 -0.41420254
0000a0 47 17 5c 3d 19 5e 6c be f6 56 45 3e a7 47 32 3e
       0.053733137 -0.2308277 0.19271454 0.17410146
0000b0 21 81 db 3d 3f 86 a9 3d f8 a0 d1 bd cb 4c 78 be
       0.10717989 0.082775585 -0.102357805 -0.24248044
0000c0 49 c9 1a 3e 67 cc 32 3e 32 8f 68 3b 40 d7 8f 3e
       0.15115847 0.17460786 0.0035485742 0.2809391
0000d0 20 3a 8c 3e b1 68 62 3e d9 00 dc 3d 72 4d 74 3e
       0.27388096 0.22110249 0.10742349 0.23857668
0000e0 03 f5 99 3d 9e 3a 37 bc 02 53 0d be ee 88 8d bd
       0.075174354 -0.011183409 -0.13801196 -0.06910883
0000f0 e9 58 a8 be 98 81 6b 3d 7a f8 a4 bd 63 35 1d 3e
       -0.32880333 0.057496637 -0.08055206 0.15352397
000100 ce 30 b9 3d f7 bc 85 3d a6 87 5a 3c f5 0d ac bd
       0.09042512 0.06530183 0.013338005 -0.084010996
000110 c0 b7 9b 3d 52 b7 08 3c 2c d2 96 3d 4d 30 32 3e
       0.07603407 0.008344488 0.07364306 0.17401238
000120 69 f3 03 be a6 fd 12 bc 7b 28 67 3e 7a fe c7 3e
       -0.12885822 -0.008971607 0.22574036 0.39061338
000130 49 cc 5b be 18 7e d7 3d 73 ce 9b 3d ca b7 4b 3e
       -0.21464647 0.10522097 0.076077364 0.19894329
000140 df 8d 10 3e 26 47 f5 3d cc f7 f5 bd df 1d 60 3d
       0.1411662 0.11976461 -0.12010154 0.054715987
000150 08 f1 1d bd 2b d2 91 be 72 6d 42 be 59 4e c6 be
       -0.038559943 -0.28480658 -0.18987063 -0.3873165
000160 82 7a 38 3d c3 a8 ef bd ea e6 04 bd ab 49 79 3e
       0.045038708 -0.117021106 -0.03244678 0.24344508
000170 b3 b6 88 3d 14 cc b4 bd 8e 8a 23 3e b5 1f 57 3e
       0.06675472 -0.08827987 0.15970823 0.21008189
000180 63 8b 0c 3e 26 11 bf 3e 9a 8c 28 3e c0 c5 8f 3c
       0.13725047 0.3731777 0.16459885 0.01755035
000190 ff af 5b 3e 78 2c af 3d 95 ac c8 be 22 47 43 bc
       0.21453856 0.085534036 -0.3919417 -0.011918815
0001a0 70 44 bb bd 9b 07 2f 3d ec 2d 47 3e ae ac ac bd
       -0.09143913 0.042731863 0.19451112 -0.084313735
0001b0 75 fc 0c bd 51 63 84 be da 3f 83 be 8a 29 27 be
       -0.03442045 -0.25857022 -0.25634652 -0.1632444
0001c0 d9 55 57 3d 2b d4 c1 bd 5a 26 89 be 11 eb 08 3e
       0.052572105 -0.09464296 -0.26787072 0.1337092
0001d0 1b 77 51 3d 17 44 a8 3e 1d 36 27 be d9 6b 00 bd
       0.05113898 0.32864448 -0.16329236 -0.03135285
0001e0 7b b7 dc 3c 17 54 96 3e a2 66 9f 3e c2 21 b8 be
       0.026942959 0.2936103 0.3113299 -0.35963255
0001f0 a1 71 07 3c 5d 7a 4d be d7 1b 83 3e 69 50 9e 3d
       0.008266837 -0.20066209 0.25607178 0.07730181
000200 71 86 ff 3d 1a 04 18 3e 77 00 46 3d 78 02 63 bd
       0.124768145 0.14845315 0.048340287 -0.055422276
000210 18 21 ef 3c 50 4c 95 be 55 a4 46 bd 5c 41 48 3e
       0.029190585 -0.29159784 -0.048496563 0.19556183
000220 41 a4 92 bd 20 a6 1f be 49 d6 a9 3d 35 e2 d5 be
       -0.07160235 -0.15590715 0.08292825 -0.41774145
000230 4d f2 81 3d 14 60 48 be be 59 4a 3e a9 d7 5f 3e
       0.06345043 -0.19567901 0.19760796 0.21859612
000240 4c 1c 37 3e 7b 1a c0 3d fa 19 1b be 2b 17 1d be
       0.17881888 0.09380051 -0.15146628 -0.15340869
000250 10 c1 8c 3d 83 99 3c 3e 46 ad f0 bd 84 43 2a 3e
       0.06872761 0.18417935 -0.11751799 0.16627318
000260 f2 db a5 3e ec e6 62 3e db 2f e4 bb ed 89 a6 3e
       0.32394367 0.22158402 -0.0069637126 0.32527104
000270 2b d5 eb bd 64 f6 06 3d 90 f2 1a be fa 25 0c be
       -0.11515268 0.03294982 -0.15131593 -0.13686362
000280 8c a6 bd bd e8 61 6d 3d 34 a5 1c 3d 36 76 f2 3d
       -0.09260282 0.0579547 0.038243487 0.11838953
000290 2b 1c 20 3e 62 f1 92 3d cf e3 a9 3d 37 13 29 bd
       0.15635745 0.07174946 0.08295404 -0.04127809
0002a0 65 72 6e 3e d4 8f 61 bd 7c 36 35 bd ff ca 3c 3e
       0.23285826 -0.055068806 -0.044241413 0.18436812
0002b0 0b b8 19 be 7b f5 52 3d 98 b7 84 3e 18 db 31 3e
       -0.15011613 0.05150364 0.2592132 0.17368734
0002c0 fb 8c 46 be 9d 06 4d bc cf 52 12 bc 5d af 09 3e
       -0.19389717 -0.012513784 -0.008930876 0.13445802
0002d0 d4 55 3f 3e 05 da eb bc a4 54 09 be 68 82 bc 3d
       0.18685085 -0.028790483 -0.13411194 0.092045605
0002e0 42 c3 56 bd 38 f7 8d be 46 2e 93 be 60 3e 67 be
       -0.052432306 -0.27727675 -0.2874624 -0.22582388
0002f0 7b b8 c8 bd de 98 da bd 56 14 2f 3e ec cc 39 3e
       -0.09800812 -0.10673688 0.17097601 0.18144578
000300 3c 97 3f 3e a6 47 2d be 09 c1 e8 3d 80 18 29 3e
       0.18710035 -0.16921863 0.113649435 0.16513252
000310 65 d5 9e 3e 2f 75 32 3e 58 89 e5 3d 77 8f 65 bd
       0.31022182 0.17427514 0.11207837 -0.05604502
000320 8e bd 21 3e d6 d6 b8 3c c0 8a 55 be 17 7f 31 be
       0.15794966 0.02256338 -0.2085371 -0.17333637
000330 74 1e 33 be 92 7b 43 bd ac e8 89 3e 0b f4 d6 3d
       -0.17492086 -0.047725268 0.26935327 0.10495766
000340 9b fc 1a be ad f2 6a be 57 07 95 be d8 b9 b7 bd
       -0.15135424 -0.22944136 -0.29107162 -0.08970994
000350 4b e0 b3 3d 4b 95 02 be fe 73 98 be 63 7d e0 3d
       0.08783015 -0.12752263 -0.29775995 0.109614156
000360 62 54 aa 3d d1 54 a1 3e 91 b8 3b be c0 dc 30 be
       0.08316876 0.31510022 -0.18332125 -0.1727171
000370 fe 9a 48 bd c8 ba 9c 3e 35 6c 3b 3e 7e 5a 84 be
       -0.048975937 0.30611253 0.18302996 -0.2585029
000380 09 10 24 3d 7f 0a 2d be ef 03 4e 3e 60 cb 19 3d
       0.040054355 -0.16898535 0.20118688 0.03754747
000390 03 e1 02 3e e0 ea e5 3b 53 07 5a 3d ca 55 89 bc
       0.12781148 0.0070165247 0.05322964 -0.01676454
0003a0 c6 dd 90 3d 5d 70 a8 be ef b4 19 ba 2e c4 16 3e
       0.0707355 -0.32898226 -0.0005863448 0.14723274
0003b0 99 ef 07 be 5c d2 41 be f4 f2 df 3c 5c d6 a7 be
       -0.13274993 -0.18927902 0.027337529 -0.3278073
0003c0 7e 60 32 3d fb ba 88 bd df 8e 9e 3d c8 1a 6b 3e
       0.043549053 -0.06676289 0.07742094 0.22959435
0003d0 71 59 03 3e 17 d0 4b 3d ea c8 93 bd 59 14 69 be
       0.12827088 0.049758997 -0.07216056 -0.22761668
0003e0 b3 20 86 bb f7 2a 6c 3e bc c9 40 bd 6e 1c 1c 3e
       -0.0040932535 0.23063265 -0.04706739 0.1524522
0003f0 df 49 f1 3d 9a d7 27 3e e1 9b 13 3d a4 34 a6 3e
       0.11781668 0.16390839 0.03603733 0.32462037

fc3.bias f4 [60]
000000 24 10 1c 3d 0c c8 39 bd aa 3b 89 bd 9d b4 a0 3d
       0.03810133 -0.045356795 -0.06700833 0.07846949
000010 94 d3 d1 3b 74 aa 5d 3c 65 75 95 3d b6 2c be bc
       0.006403396 0.013529409 0.07297782 -0.02321468
000020 b9 cb 1d 3c 06 98 81 3d 83 98 cf bb 7d 2b 32 3d
       0.009631091 0.06327824 -0.0063353195 0.043498505
000030 58 0a 96 bd f2 f4 23 3c de 92 7b bc 5d 5f 98 bd
       -0.07326192 0.01000713 -0.01535484 -0.07440064
000040 cf 33 83 3c 9a d6 65 bc c3 30 c7 3d c8 0d c5 bd
       0.016015915 -0.014028216 0.097260974 -0.09621769
000050 53 53 31 bc d1 db 04 bd 69 61 db 3c 89 08 d3 bd
       -0.010823089 -0.032436196 0.026779847 -0.10304362
000060 a2 15 9e bc e1 44 9e bd 29 fb 94 bd 4c fa 4e bd
       -0.019297425 -0.07727981 -0.072744675 -0.05053167
000070 ab ab 48 3d 21 68 f4 3b 0b 2e b6 bd a2 84 be 3c
       0.04899184 0.007458702 -0.08895501 0.023256604
000080 a3 99 86 3d 0d cc 65 bd 2f a3 a5 bc 20 96 82 bc
       0.06572273 -0.0561028 -0.020219414 -0.015940726
000090 b3 b7 99 bd f9 95 c4 3c 54 92 a8 bc 8b e3 36 bc
       -0.07505741 0.023997294 -0.020577587 -0.011162649
0000a0 ce e2 a2 bd b9 2f 92 bd 92 0a b9 bd 63 9b 73 3d
       -0.07953416 -0.071380086 -0.09035219 0.05947436
0000b0 59 ce 5c 3d 4d a3 2c bd 05 24 32 bd 94 66 d9 3b
       0.053907726 -0.042147923 -0.043491382 0.0066345427
0000c0 58 14 9e bd 57 63 92 3d b8 44 2f 3b 8b fc fb 3b
       -0.07718724 0.07147854 0.002674384 0.0076900176
0000d0 67 b8 cf bc 08 2e 64 bc ef 60 a5 3d 19 3f 81 3d
       -0.025356485 -0.01392699 0.08075129 0.06310863
0000e0 27 6c 8a 3d 65 f1 60 3c 40 16 74 bd f8 b9 d8 ba
       0.0675891 0.013729428 -0.05959153 -0.0016534915

fc4.weight f4 [30, 60]
000000 e4 5a 2d 3e 03 ef e8 3e 56 ef e6 3e 75 41 03 3e
       0.16929203 0.4549485 0.45104474 0.12817939
000010 15 b4 ab be 9e 95 d3 be 33 b3 e8 3e b5 f5 7a bd
       -0.3353583 -0.41325086 0.45449218 -0.06126948
000020 e7 14 97 3e bd c0 c2 3e 9e ad b6 be 08 55 0b 3f
       0.29508135 0.38037673 -0.35679334 0.5442662
000030 32 79 f9 3e 6a aa d0 3e 19 8d f6 3d 93 42 10 bf
       0.48725277 0.40755016 0.12038631 -0.56351584
000040 7b 48 3f be 12 ce 39 bc 1e f8 47 3e 16 ec fd 3e
       -0.18679993 -0.011340635 0.19528243 0.49594182
000050 23 f5 a5 bd 86 53 d9 3e c7 d1 7b be 5b f1 df 3e
       -0.08103397 0.42446536 -0.24591742 0.43738827
000060 cd 9f 90 3e 08 d3 b3 be 60 75 cb be 48 41 a9 3c
       0.28246918 -0.35121942 -0.39737988 0.020661011
000070 bb 09 af 3e 19 e6 8e be 3a 6e 8e 3e 7a 70 f7 be
       0.3418711 -0.27909926 0.2781847 -0.48328
000080 0d d3 9f be 9e dc 93 3e ef 5e 06 bf 3f 8c 5e 3c
       -0.31215706 0.28879255 -0.5248861 0.013583242
000090 3f d1 fb be c1 08 b6 3e f7 ac ac be a3 7d e2 3e
       -0.4918308 0.35553554 -0.33725712 0.44236478
0000a0 9c e8 26 3f ff 85 eb bd d4 cf b4 3e d0 18 f5 bc
       0.65198684 -0.11500167 0.3531481 -0.029919058
0000b0 57 4a 0d 3f 5e f9 75 be 49 01 81 be 9f b5 04 bf
       0.5519156 -0.24020907 -0.25196293 -0.5183963
0000c0 57 d8 e6 be cf 2b ba be c4 cf 0d bf f1 ad fd 3e
       -0.4508693 -0.36361548 -0.5539515 0.4954677
0000d0 ee ef 18 bf a0 42 00 bf b4 ab 13 bf 60 d9 b3 3e
       -0.59741104 -0.5010166 -0.57683873 0.3512678
0000e0 29 47 bb be 2e d3 b4 3e 59 7b 0e 3f e4 6c 6a bc
       -0.36577728 0.35317367 0.55656964 -0.014308188
0000f0 73 ea c3 be d7 c2 19 be 05 2e 22 be 94 c8 2e bd
       -0.38264808 -0.15015732 -0.15837868 -0.042671755
000100 85 44 b2 be b9 13 d7 3e 78 82 d7 3e 0a 94 52 3f
       -0.348179 0.42007235 0.42091727 0.8225714
000110 48 ac 99 be 32 90 83 3d e6 e6 4c 3f ed a1 e9 3d
       -0.30014253 0.064239874 0.80039823 0.11407838
000120 6a f6 60 be e1 40 35 3e c3 65 87 be 81 65 e8 bd
       -0.21969 0.1770053 -0.26444826 -0.11347485
000130 64 c2 90 3e 3a ab 76 3f f3 0b 04 bf f8 0e 05 3c
       0.28273308 0.9635502 -0.51580733 0.008121245
000140 66 8c 1b 3f 71 b4 e7 3d 2e d1 22 3e 54 d0 1e be
       0.60761106 0.11313713 0.15900108 -0.15509158
000150 22 2d 97 be 9b d6 52 3e 63 66 d5 be 56 e8 38 3f
       -0.2952662 0.20589678 -0.41679677 0.72229517
000160 0e d1 fc be 7b 3f 7f be 93 d2 83 be 7e 93 be 3e
       -0.49378246 -0.2492656 -0.25746593 0.37221903
000170 4d 28 cf 3e bf 16 e0 be b7 7d 08 3f d8 b0 24 3f
       0.40460435 -0.43767354 0.53316826 0.6433234
000180 f9 92 4a 3e dd 44 17 3f b3 18 3f 3e a9 76 c4 be
       0.19782628 0.5908945 0.18661766 -0.3837178
000190 81 3b 26 3e 2f b3 f6 3e 0e 50 1b 3f ae 37 44 3f
       0.16233636 0.4818358 0.6066903 0.7664746
0001a0 43 ef 9f 3e 0d 6e 2d be 8d 86 5f bd 7d 7c c7 3d
       0.3123723 -0.16936512 -0.054571677 0.09740541
0001b0 aa 0a ed 3d a0 67 f1 3e fc f0 ea bd ef 11 a0 bd
       0.115743 0.47149372 -0.11471745 -0.078159206
0001c0 31 f8 b5 bd 33 17 0a be bf be 43 3d 72 15 a1 be
       -0.088852294 -0.13485412 0.04778933 -0.31461674
0001d0 5d 38 1a 3f 7d e1 98 be 2d 8b db 3d 81 7a d3 3e
       0.60242254 -0.29859534 0.10719905 0.413044
0001e0 dc 1f 5a be cf 7e 35 be 28 71 46 be ec b7 bb bc
       -0.21301216 -0.17724155 -0.19379103 -0.02291485
0001f0 5b 34 9c 3e 48 33 c6 3e d8 48 85 bd 58 15 a6 3d
       0.30508694 0.38711 -0.065080345 0.0810954
000200 0c e5 8a be 0b 1e 62 be ce 03 95 3e 18 b5 0b be
       -0.27127874 -0.22081773 0.29104465 -0.136433
000210 63 12 85 be 23 7c 85 be f7 53 80 3d d1 9e 19 3f
       -0.2599059 -0.2607127 0.06266015 0.6000796
000220 b1 cf d7 3e 4a c4 0c 3e a7 59 57 be 04 2f 7c bd
       0.42150643 0.13746753 -0.21030293 -0.061568275
000230 2d 5c cc 3e 86 e1 b2 3c 90 5b 89 3e be 77 48 bc
       0.39914075 0.021836054 0.2682767 -0.01223558
000240 b5 b9 90 bd b9 42 a9 3e bf 26 e1 3e 9e 35 86 bd
       -0.07066671 0.33058718 0.43974873 -0.065531954
000250 d7 a5 8d be b4 15 d2 3e 6c fc b1 bc 8a 4c b5 3e
       -0.27665588 0.41032183 -0.02172681 0.35409957
000260 87 fd 8e 3e 5e 08 93 be 1f e5 d8 3e d7 9f 2c be
       0.279278 -0.2871732 0.42362306 -0.16857849
000270 6a 93 d4 3e c6 99 0a be 4a 90 be 3e b1 0b 66 be
       0.41518718 -0.13535222 0.3721946 -0.22465397
000280 12 79 93 be 90 f6 17 3f fa 3b df bd 12 66 31 bc
       -0.28803307 0.593606 -0.109001115 -0.010827558
000290 76 7c 3e be 5f 29 a8 3e 97 ed a6 3e 6f 02 d7 3e
       -0.18602166 0.32844064 0.32603142 0.41994044
0002a0 d7 b3 9f 3e 59 66 1b 3f ba 85 d3 3e db 78 e2 bd
       0.31191894 0.60703045 0.41312963 -0.110582076
0002b0 ce 7b e7 3e dc 90 cd 3e 1d 76 e1 3e 36 1f bc bd
       0.45211643 0.4014958 0.44035426 -0.091856405
0002c0 34 f5 0b 3f 9b 03 01 be 07 66 e5 bd b3 e1 ee 3e
       0.54671025 -0.12599032 -0.11201101 0.4665657
0002d0 28 ae 80 be 9f 41 73 be 0a b6 4f be fd 6b b2 3d
       -0.2513287 -0.23755501 -0.20284286 0.087120034
0002e0 54 a8 22 3f 9f ba 15 3f c6 a9 79 3c 0c 86 00 be
       0.635381 0.58487886 0.015238231 -0.12551135
0002f0 db cf b7 be 47 95 14 3c 18 41 01 3f 14 8a 44 bd
       -0.3590077 0.009068794 0.5048995 -0.047983244
000300 4b 01 83 be 11 15 bc bd f8 c4 1a be 1c b1 3d 3f
       -0.25586924 -0.091837056 -0.151142 0.7409837
000310 7a 41 10 3f 77 7e 17 3d 5b f2 29 be f0 06 53 be
       0.5634991 0.03698584 -0.16596358 -0.20608115
000320 b0 a2 fa 3e 3c 51 88 be 42 0f 0d 3f d3 00 93 bd
       0.48952246 -0.26624477 0.55101407 -0.071778916
000330 54 c5 4c bd 8a f5 0a 3f 2c 78 44 3f 51 d5 76 be
       -0.049992874 0.5428091 0.7674587 -0.24104811
000340 08 0a 5b be 8d cf 09 3f bf b8 b9 3c 1f 1b e6 3e
       -0.21390545 0.5383232 0.022671102 0.44942567
000350 05 ef 91 3e 2f 33 c2 be ce db 13 3f 6d f0 a9 be
       0.2850267 -0.37929675 0.5775727 -0.33191243
000360 f5 5c cb 3e 77 c7 a7 be 2d 83 2c 3f 0f d2 04 be
       0.39719358 -0.32769367 0.6738766 -0.12970756
000370 7d 93 f1 bd 80 dc f5 3e ac a9 a5 be e7 ee 06 be
       -0.11795709 0.4801979 -0.32356012 -0.13177072
000380 ec 37 2f be 2d c1 2f 3f 3c eb 05 3f 32 14 10 3f
       -0.17111176 0.6865414 0.52312064 0.56280816
000390 59 97 06 3f 20 93 0a 3f 4e 66 13 3f 14 ef 1a be
       0.5257469 0.54130745 0.5757798 -0.15130264
0003a0 a6 6f ea 3e da bc e0 3e 61 51 ed 3e a6 48 7a be
       0.45788306 0.43894082 0.4635115 -0.24441776
0003b0 05 4e bb 3e e7 eb 14 be 6f f8 2d be 5d 10 ec 3e
       0.36582962 -0.14543115 -0.16989301 0.46106234
0003c0 24 5f 66 3f 1b bc 44 3f e8 93 18 3f e6 86 05 3f
       0.89988923 0.76849526 0.5960069 0.52158964
0003d0 d9 61 12 3f e2 93 57 be 7c fd c1 3d c1 8d 23 bf
       0.57180554 -0.21052507 0.094721764 -0.63888174
0003e0 9d d4 6a 3f 69 f6 b2 3e 9a 8c c0 be 87 51 76 3e
       0.9173067 0.3495362 -0.3760727 0.24054538
0003f0 24 e6 c7 3e 16 f5 46 3e 15 20 d7 3e dd 14 21 3d
       0.3904277 0.1942943 0.42016664 0.039326537

fc4.bias f4 [30]
000000 7f 66 a6 bd 99 24 1e 3c df e9 51 3c b8 5a 58 3d
       -0.08125018 0.00965228 0.012812107 0.05282089
000010 a0 02 82 bd 7f f8 3b 3d b5 01 13 3e a3 49 f5 3c
       -0.06348157 0.04589128 0.1435612 0.02994234
000020 55 7d ff bb 47 eb 5f 3d 07 e8 ee 3d 48 ac 22 3e
       -0.007796923 0.054667737 0.116653495 0.15886033
000030 7d 89 0b be ec 82 41 3e 65 9d 2b 3e 58 47 ca 3d
       -0.13626666 0.18897599 0.1675926 0.09876889
000040 86 ba a0 3d 7e 52 9d 3d fa 37 b3 3d 1d c7 9e 3c
       0.078480765 0.0768175 0.08750911 0.019382054
000050 5a e0 2d 3d 0a c5 d8 3d 13 60 53 3e 69 1b 20 3e
       0.042450286 0.10584457 0.20642118 0.15635456
000060 6b 8a 4f bd 15 b4 4d 3d 46 34 e8 3d 5e c8 f3 3d
       -0.050669115 0.050220568 0.11338095 0.119034514
000070 c0 e3 06 3e d2 66 55 3e
       0.13172817 0.20840004

fc5.weight f4 [10, 30]
000000 c0 f9 2f bf 41 34 48 3f 66 e5 50 3f e0 eb 13 3f
       -0.68740463 0.78204733 0.81600034 0.5778179
000010 78 42 11 c0 ce 55 9d be 76 0b 9c bf 88 41 03 3f
       -2.269682 -0.30729526 -1.2190998 0.5127187
000020 72 de ac 3e 93 ee 91 bf 94 8a 07 c0 11 fd 3c 3f
       0.33763462 -1.1400932 -2.1178331 0.7382365
000030 db ca 5c bf e8 9b 21 c0 be 8e 29 bf 48 84 08 bf
       -0.8624703 -2.5251408 -0.6623343 -0.53326845
000040 0c 8c a3 bf 29 26 6f 3f 93 75 10 c0 3c 34 45 3f
       -1.2777114 0.934176 -2.2571762 0.7703283
000050 a7 5b 62 3f a2 b1 ed bf 3f 67 04 3f 85 27 11 bf
       0.884211 -1.8569834 0.5172004 -0.56700927
000060 5c c0 38 3f 09 04 82 bf cd aa 55 3f da bd 6d bf
       0.7216852 -1.0157481 0.83463746 -0.92867815
000070 be a6 d1 bf 0f bd 48 3f 7c 28 a9 3e e5 64 9f be
       -1.6379011 0.7841348 0.330387 -0.31131664
000080 7f 70 d8 bf c2 ac d3 bf c4 c7 d3 3e 20 4d 1d 3f
       -1.6909331 -1.6537097 0.41363347 0.6144581
000090 7b 95 8a 3e da e1 07 be 17 17 4e 3f ea 92 1d 3e
       0.2706717 -0.1326975 0.8050398 0.15388075
0000a0 2e b1 c2 3f 3e 42 0f c0 29 15 90 3e 20 ba dd 3e
       1.5210321 -2.238418 0.28141144 0.43306065
0000b0 7e bd 30 bd f1 b5 4c 3f e6 4d 9b 3e 95 94 b0 bf
       -0.043149464 0.7996512 0.3033287 -1.3795344
0000c0 de a7 f3 3e 3d 90 22 c0 53 8c 77 bf 49 cd 9d 3e
       0.4758901 -2.5400536 -0.9669849 0.30820683
0000d0 39 0a 15 bf 75 27 31 3e 0b 53 3c bf 8d 5e d2 3e
       -0.58218724 0.17300208 -0.73564214 0.41087762
0000e0 50 0e d6 bf ed c8 48 3e 18 e3 e1 3e e9 53 f6 bf
       -1.6723118 0.19607897 0.4411857 -1.9244357
0000f0 25 56 6f bf 12 a4 03 c0 62 cb 20 3e cd f6 47 bc
       -0.9349082 -2.056889 0.15702584 -0.012204838
000100 2b 59 48 3e 06 bf 20 be a4 11 b0 3e 78 85 c8 3e
       0.19565265 -0.1569787 0.3438846 0.3916433
000110 85 ac 91 3e a4 e2 4d bf b5 ef 54 3f 4a 22 7b 3e
       0.28451934 -0.8042395 0.83178264 0.24524799
000120 0c 58 85 bf d5 b8 35 3e 91 20 cc bf 68 e8 05 be
       -1.0417495 0.17746289 -1.5947438 -0.13076937
000130 c6 d0 26 bf 4d 5b e2 bf e8 a2 94 bd ce 5a 86 3d
       -0.65162313 -1.7684113 -0.072576344 0.06560288
000140 af 4b 8a 3c 27 cb be 3e 04 f2 59 bd fb 4f d4 bf
       0.016881792 0.37264368 -0.05320932 -1.6586908
000150 41 e0 c3 3e 2d 5f 82 be f0 21 6a 3d a7 32 0f be
       0.3825703 -0.25463238 0.05716127 -0.13984166
000160 17 51 76 be 57 ac 39 bd dd 93 10 3f 0d 74 cd bf
       -0.24054371 -0.04533037 0.5647562 -1.6051041
000170 f1 b5 0c bf 3d c9 4e 3d b2 7f ad 3d cd 5e 43 3f
       -0.5496512 0.050484885 0.084716216 0.7631653
000180 e5 46 19 be 27 f4 1e be 86 3d 7f 3e fc 09 bf bd
       -0.1496845 -0.15522824 0.24925813 -0.09328076
000190 df 73 be 3e f0 3d fb bc 8c 10 db 3e 07 72 18 bd
       0.37197778 -0.030669183 0.42786062 -0.03721812
0001a0 4e 78 43 3e b1 e7 26 3e ca 65 2e be 11 35 c3 bf
       0.19088861 0.16299321 -0.17031017 -1.525057
0001b0 d9 69 48 3e 30 3e 52 3d 78 34 11 c0 e5 35 a0 3d
       0.19571628 0.051328838 -2.2688274 0.078227796
0001c0 b4 06 98 bf d4 5d 97 be 31 2d 91 bf 82 12 98 3e
       -1.1877046 -0.29563773 -1.1341916 0.2970162
0001d0 75 5c da bd ee a9 a7 3d 37 1c 1e be 0a e5 04 3e
       -0.10662166 0.081867084 -0.1544045 0.12977996
0001e0 88 cb 7c bf cf 32 ea 3e 85 a2 5e 3e 8c ff 8d 3e
       -0.98748064 0.4574189 0.21741684 0.2773403
0001f0 32 27 0c c0 14 3c 1c bf 95 c3 86 3d d7 59 e5 bf
       -2.1898923 -0.6102917 0.06580273 -1.7918042
000200 0c 13 3e c0 c7 c7 cb 3e b3 a4 75 bf 5a ae 88 3e
       -2.9699125 0.39800856 -0.95954436 0.2669552
000210 6a c0 18 bf f1 c5 41 3e ab d4 b6 3e b1 d6 59 bf
       -0.596686 0.18923165 0.35709128 -0.8509322
000220 ca 64 89 3e 76 00 e5 3e af 3a dc bf 4e a2 86 3e
       0.26834708 0.44726914 -1.7205409 0.26295704
000230 21 da e8 3e 74 da 34 3e 41 f5 ef 3e 17 8a f9 3e
       0.4547892 0.17661458 0.468668 0.48738167
000240 54 f8 9a 3e f4 6e d5 bf 01 ec bd 3e 06 24 d1 bf
       0.30267584 -1.6674485 0.3709412 -1.6339118
000250 00 a8 c2 bc 05 48 89 3e cf ad ed bf cf 50 8d 3e
       -0.02376175 0.2681276 -1.8568667 0.27600715
000260 1c 4c 61 3d 9b b5 b9 bd aa 1e d2 3a ad 2d 8c bf
       0.055004224 -0.090678416 0.0016030867 -1.0951439
000270 0f f1 89 3d c3 82 d1 3e fe 4a 95 3e 48 ac d2 3e
       0.067354314 0.40920076 0.29158777 0.41147065
000280 01 23 06 c0 48 50 7f bd f0 0a 9b bf 1f dd 9d bb
       -2.0958865 -0.06233242 -1.2112713 -0.0048176195
000290 5e 8e ac bf fc ac 7e bf c9 1d b3 3e bf 08 7a 3e
       -1.3480947 -0.99482703 0.34983662 0.24417399
0002a0 9e 60 7a 3d 44 0e 17 be 75 0d 29 bc 21 c8 d9 bc
       0.061127298 -0.14751536 -0.01031815 -0.026584687
0002b0 90 ac b4 3e b5 82 cf 3d 21 43 fe 3c 91 3c 99 bf
       0.35287905 0.10132352 0.031037869 -1.1971608
0002c0 33 ca f5 bd 66 64 ad bf 69 32 ec 3d 3f d1 bd 3b
       -0.12001457 -1.3546264 0.115330525 0.0057927663
0002d0 ac 47 5a bf 54 5d ca bb a5 5e c4 3e f9 b6 8b 3e
       -0.8526561 -0.0061756764 0.38353458 0.27288035
0002e0 06 70 a1 3e 19 b6 58 bf 61 88 b8 bf 3c 33 f0 3e
       0.3153078 -0.8465286 -1.441662 0.4691409
0002f0 c1 9b a5 3c b9 c7 be bf 2e ad 81 3f fa 9a 01 3f
       0.02021587 -1.49047 1.0130975 0.506271
000300 6b b9 80 bf 49 da c2 be d8 72 6e bf f9 24 b9 be
       -1.0056585 -0.38057163 -0.9314399 -0.3616102
000310 44 cc e2 bf ee c6 c4 3e e3 a7 6a be 33 f6 04 3f
       -1.7718587 0.3843302 -0.22915606 0.5193817
000320 f0 cd e4 3e 0b d7 e5 bf c0 47 10 3f 1f 34 bc bf
       0.44688368 -1.7956251 0.5635948 -1.4703406
000330 bc 21 eb 3e 95 49 ec bf 9a a6 16 3f c6 0c e3 bf
       0.45924175 -1.8459955 0.58847964 -1.7738273
000340 0e a8 f1 bf 63 ae 63 3e c0 4b 06 3f e6 64 2a 3f
       -1.8879411 0.22234492 0.52459335 0.6656021
000350 bf 80 8e bf 5a b3 b7 bf 04 15 39 3e 0d 8e 7f 3f
       -1.113304 -1.4351609 0.18074423 0.9982613
000360 4b 73 10 3e b9 7e 0b c0 ed d0 67 bf 1f b2 86 3e
       0.14106481 -2.1796095 -0.9055317 0.2630777
000370 31 88 d2 bf 51 5d 0d 3e 4a af 12 3e 4e d2 81 3e
       -1.6447812 0.13805129 0.1432468 0.25355762
000380 8e 50 73 3e aa 8a 9d 3f 7b d8 29 3e 22 7d 87 3e
       0.23761198 1.2307942 0.16586487 0.26462656
000390 6d 2d 1f 3e 4f 90 63 3e ad 00 ba bf 0d fc a4 3d
       0.15544672 0.22223018 -1.4531456 0.08055887
0003a0 17 01 dc be b5 37 10 3e 80 93 90 bf 15 64 54 3d
       -0.4296958 0.1408375 -1.1295013 0.05185326
0003b0 80 84 dc bf 0d ec 6c 3e e1 49 18 3e 1d 3e 98 bf
       -1.7227936 0.23136921 0.14871933 -1.1893955
0003c0 f9 0e 9a 3e 03 d6 d9 bd 24 b5 83 3b 39 5c a7 be
       0.30089548 -0.106365226 0.0040193964 -0.32687548
0003d0 97 5e bf bc 20 c7 b1 bf 5a 2e 4a be f9 c4 03 3c
       -0.023360534 -1.3888893 -0.19744244 0.008042567
0003e0 3b 28 fb 3e 34 ec 23 3e 5f a2 2e bf cf 9b 76 be
       0.4905413 0.16008073 -0.6821651 -0.24082874
0003f0 ba 9a c9 3d a1 07 99 bd 4b 59 3b 3e 43 cd 13 c0
       0.09843965 -0.07472158 0.18295781 -2.3094032

fc5.bias f4 [10]
000000 c6 de a1 3e df 95 b8 bc e3 0d 64 3d f6 0d f6 be
       0.31615275 -0.022532402 0.055677306 -0.48057526
000010 27 2c 78 3d 25 75 73 be 73 e7 46 3e e0 7c 77 3c
       0.060588982 -0.23775156 0.19424228 0.015105456
000020 fa 18 01 bf bf 47 a7 be
       -0.50428736 -0.32671925
