models/mnist/checkpointFCNet2.pt (torch, 743943 bytes, 10 tensors)

fc1.weight f4 [200, 784]
000000 12 ba 16 3c 00 8b 13 bc fc fe 01 3d c4 1a 25 3c
       0.009199636 -0.009005308 0.031737313 0.010077182
000010 a8 98 ea 3c 48 8b d8 bc ec 86 da 3c c9 7d 7c bc
       0.028637245 -0.026433602 0.026675664 -0.015410849
000020 b7 00 16 3d bf e9 00 bd cc 11 e1 3c ea 7c f8 3c
       0.036621775 -0.031472918 0.027474307 0.030333001
000030 f1 f7 11 3d 39 28 0b 3c 16 c7 9c 3c b0 64 4c 3c
       0.035636846 0.008493477 0.0191379 0.012475178
000040 18 41 38 3c 7c 14 e1 3c 24 44 7b 3c 6e c2 9d bc
       0.011245988 0.027475588 0.01533607 -0.01925775
000050 70 a5 7c 3c 92 b7 d4 3c f2 11 ce 3c ce 77 c3 3c
       0.015420303 0.02596644 0.025155041 0.023860838
000060 04 05 87 bc fc 84 58 3c 0a a9 35 bc 2a 7f 88 3c
       -0.016481884 0.0132153 -0.011087665 0.016662199
000070 52 ea f9 bc 65 d7 da 3b 2a 0b 8c bc d6 7d ce 3c
       -0.03050724 0.006678509 -0.017095167 0.025206488
000080 5e f2 87 bc 20 0c 25 3c 41 30 00 bd 00 d0 fb 3c
       -0.016595062 0.010073692 -0.03129602 0.03073883
000090 84 19 ac 3c dd 66 06 bd d9 ef 74 bc 4d 07 a2 3c
       0.02100826 -0.03281294 -0.014949762 0.019778872
0000a0 38 f9 bd 3b 18 8d a2 3a 5e 0c 10 bd 07 b1 bb 3c
       0.0057975315 0.0012401668 -0.035168044 0.022911562
0000b0 d9 d4 d7 3c f3 ae 11 3d f7 42 f7 bb b2 95 d1 3c
       0.02634661 0.035567235 -0.0075458246 0.025584076
0000c0 38 8a 96 bc 5e 71 c3 3c 7d d1 02 bd f9 0b f3 3b
       -0.018376455 0.023857769 -0.031938065 0.0074171987
0000d0 22 33 39 3c f7 41 d4 3b 29 f2 a0 3b 6c dd 82 3c
       0.011303695 0.00647759 0.0049116802 0.015974723
0000e0 39 41 16 3d 48 18 62 3c b4 a2 df bc d8 ca 04 3c
       0.036683295 0.013799734 -0.027299263 0.008105002
0000f0 7a c6 9a b8 9c 52 ed 3c 68 ed ba 3c 4b ec 21 bc
       -7.3802614e-05 0.028970055 0.022818282 -0.009882997
000100 ec f4 92 bc d1 5b 88 bb 87 2d 1e 3c 87 1a 24 bc
       -0.017939053 -0.004161336 0.009654409 -0.01001609
000110 b3 91 94 3c 76 0b 2b 3d a0 ef f6 bb 81 7a 1a 3d
       0.018135881 0.041758977 -0.0075358897 0.037714485
000120 cd bf e2 3c 6c 0c a1 3c 7a 4c c9 3c b2 be b1 3c
       0.027679348 0.019659244 0.0245726 0.021697376
000130 37 94 8c bc 94 be cc 3a d3 82 19 3b 3a 6e 0c bd
       -0.017160518 0.0015620762 0.0023423925 -0.034284808
000140 08 4c fb bc 9c 03 df bc aa 55 58 bc 04 66 e9 3c
       -0.030675903 -0.0272234 -0.013204018 0.028491028
000150 c9 6b b6 3b ce 47 33 bb 82 46 df 39 3d 36 8f 3c
       0.005567048 -0.0027356031 0.00042586407 0.017481918
000160 28 88 24 3c 4f ff d7 3c fa 71 b9 bc af c9 2f 3d
       0.010042228 0.026366858 -0.022637356 0.04291695
000170 71 04 0d 3d 85 c2 44 bc 80 52 36 bc 3e da cc bb
       0.034428064 -0.012009268 -0.011128068 -0.0062516024
000180 2c 8b e9 3c 7b d0 52 3d e9 00 04 3d a4 f8 81 3d
       0.028508745 0.051468354 0.03222743 0.063462526
000190 f2 dc 87 3d 7b 67 a2 3d a3 9d fb 3c 1f ef c7 bc
       0.06633939 0.079298936 0.030714815 -0.024406014
0001a0 1b 46 0b 3c 69 cc f9 bc c2 93 28 3c 09 ca 16 bd
       0.008500601 -0.030492978 0.010289134 -0.03681377
0001b0 06 b3 42 bc e1 f0 56 3b de 5a d8 3c 34 08 cd bc
       -0.011883503 0.0032797384 0.026410516 -0.025028326
0001c0 1e 93 f0 bc 48 ca ad bc a3 a8 77 bc 30 cf 45 bb
       -0.029367026 -0.02121462 -0.01511589 -0.0030183308
0001d0 fa f5 12 3d 8e 32 09 3d f0 79 0b 3d a6 75 6c 3c
       0.035879113 0.03349548 0.034051836 0.014432346
0001e0 23 34 18 3d f9 e1 0e 3c 2f 50 38 3c 5f c7 7a 3c
       0.037159096 0.008720868 0.011249586 0.015306323
0001f0 95 b6 66 bd 82 65 4b bd 5c 51 e3 bc c2 12 c8 bc
       -0.056326468 -0.049657352 -0.027748756 -0.024423007
000200 cb cc 10 3d 31 0d 89 3c 7e ad 58 3d 39 b5 06 3d
       0.035351556 0.016729923 0.05289983 0.03288767
000210 19 64 ef 3c 11 b5 55 bc 21 54 82 3c 7d b9 08 3a
       0.029222535 -0.013043658 0.015909256 0.0005215628
000220 d1 3c 6b 3c 92 b2 84 3c 27 f0 f4 ba 0a 60 c8 3c
       0.0143577615 0.01619843 -0.0018687294 0.024459857
000230 dc c8 b5 3c b2 bd 59 bc 26 0f dc ba df 59 cb bc
       0.022190504 -0.013289856 -0.0016789183 -0.024823127
000240 d1 e6 1d 3d 4f 12 a5 3c 46 fb 71 3d ea e6 04 bc
       0.0385502 0.020150332 0.059077524 -0.008111695
000250 ed 2e 02 bd d3 ba 35 bd 79 cf ab bb 42 67 75 bd
       -0.031783033 -0.044367623 -0.0052432385 -0.059912927
000260 91 99 db bd 08 7a d5 bd 15 75 60 bd bf c3 9f bd
       -0.1072265 -0.10423666 -0.054799158 -0.078010075
000270 af ec 0c 3b 20 1f 0f bd bd 92 46 bc 1d 22 dc 3b
       0.002150338 -0.034941792 -0.012119946 0.006717934
000280 f2 23 34 bb cb 71 1a 3d 23 17 0f 3d 1a ba ff 3c
       -0.0027487245 0.037706178 0.034934174 0.03121667
000290 86 ab 2c bc e3 52 fa 3a 2c 07 68 bc 7b 5f fa 3a
       -0.010538941 0.0019098188 -0.014161866 0.0019101942
0002a0 88 7e 53 3b 3e cf c3 3c bd d4 c8 3c 6f 6a f2 3a
       0.0032271463 0.023902532 0.024515504 0.0018494854
0002b0 f8 31 d0 3c 28 d2 20 3d 8e 8b d9 3c 0b 54 e9 3c
       0.025414452 0.03926292 0.026555803 0.028482458
0002c0 7c 1c 10 ba ba c4 0e 3d e8 c9 c9 3a c0 25 d3 bd
       -0.00054974086 0.03485558 0.0015395256 -0.103099346
0002d0 b2 92 7b bd 69 bc cf bd 47 57 a8 bd ef 15 2f bd
       -0.061419196 -0.10143358 -0.08219772 -0.042745527
0002e0 fd 7e 16 bd e4 26 05 3c 28 53 58 bd bb 19 a7 bb
       -0.0367422 0.008126948 -0.05281368 -0.005099503
0002f0 b0 27 25 3d a0 c0 33 3d a3 be a7 b8 ed f8 47 bc
       0.040321052 0.043884873 -7.9986894e-05 -0.012205345
000300 61 17 c2 bc e7 ea 84 3c 6b bf 1a 3c ea ba 5d 3c
       -0.023692789 0.016225291 0.009445052 0.013533333
000310 96 df 72 3c e1 9c c1 3c bf ba 56 bc 89 15 82 bc
       0.014823815 0.023634376 -0.013106047 -0.01587941
000320 35 1f 80 3b 6f 22 9d 3c 92 c7 2c 3d c5 db 87 3c
       0.00390997 0.019181458 0.042182513 0.016584286
000330 35 de b4 3b d4 d7 27 3d 94 44 a0 bc 67 98 10 bb
       0.005519653 0.040977314 -0.01956395 -0.0022063495
000340 01 9e 58 bc 82 72 c9 bc c3 e0 01 bd 3c 1f 2b bd
       -0.013221265 -0.024590734 -0.03170849 -0.041777834
000350 ad f8 9a bc 69 84 11 3d 29 05 f8 3c 43 f7 8a 3d
       -0.018917406 0.035526667 0.030275898 0.06785443
000360 c8 42 ae 3d f7 f0 3c 3d e8 c6 32 3d e7 60 0a bd
       0.08508831 0.04612824 0.043646723 -0.03378382
000370 d1 91 71 bc 42 13 ca 3b 11 7e c9 3c f0 0c b4 bc
       -0.014744238 0.0061668465 0.024596246 -0.021978825
000380 0e 7d 51 bc fe fc f0 3c 07 a6 a6 3c 81 a6 00 3b
       -0.012786163 0.029417511 0.02034284 0.0019630494
000390 80 dc d0 3c 51 ce 05 bc 0f 26 c8 bb 7e 95 cd 3c
       0.025495768 -0.008166865 -0.0061080526 0.025095697
0003a0 5a cc fb bc e4 ff 36 3c a0 3b 48 3d 6a da 47 3d
       -0.03073709 0.0111694075 0.048884988 0.04879228
0003b0 f5 49 81 3d c8 75 8b 3d 1e f8 1e 3d 52 68 8e 3d
       0.06312934 0.06809574 0.03881084 0.06953491
0003c0 ba 3b 55 3d f8 43 7f 3d c0 04 3f 3d eb 3f c3 3d
       0.052058913 0.06232068 0.04663539 0.09533676
0003d0 63 e0 9d 3d fa 6c da 3d e8 7d a6 3d 13 7b 20 3c
       0.07708814 0.10665317 0.081294835 0.009794968
0003e0 b8 20 a5 bc c0 fe 88 3c a6 4a 92 bc b9 13 4b bc
       -0.020157203 0.016723037 -0.01785786 -0.012394839
0003f0 70 31 23 bc ed 02 fa bc e7 8f 9b 3a 3b c6 7f bc
       -0.009960517 -0.030518973 0.0011868448 -0.015611227

fc1.bias f4 [200]
000000 64 5c df bb 28 35 e5 bc a3 ce ff bc 82 aa 9f bc
       -0.0068164337 -0.027979448 -0.031226462 -0.019490484
000010 d2 b5 4a 3a ab ac 86 3c bb ba fa ba 1e dc e8 3c
       0.0007732782 0.016439756 -0.0019129136 0.028425273
000020 30 82 99 3c 55 4f 80 3b b1 09 fe bb bf 9c 1e bd
       0.018738836 0.003915707 -0.00775262 -0.038723703
000030 dd 8a f4 bb 3d d1 00 bd 7d 41 2f bd cc 80 2e bd
       -0.007462843 -0.031449545 -0.042787064 -0.0426033
000040 3c 82 45 bc 0a ea 07 bc e9 72 bf 3c 9b 96 ab bc
       -0.012054976 -0.008295545 0.023370223 -0.020945838
000050 01 46 54 3c 08 19 ac bc 6a 8d 0c bd 64 c6 2a bd
       0.012956143 -0.02100803 -0.03431455 -0.041693106
000060 64 66 9b 39 93 1d 9a 3c 8b 64 70 bb bf 0f 09 bd
       0.0002964019 0.01881293 -0.0036681022 -0.033462282
000070 79 40 d0 bb ff 00 82 3c 46 1f 8b bc f4 a7 f8 bc
       -0.006355342 0.015869616 -0.016982686 -0.030353524
000080 6b 68 69 3c 62 1e ce 3c 5f 76 2e bc f5 c2 ae bc
       0.014246087 0.025160972 -0.010648339 -0.021333197
000090 05 81 b2 3a 65 88 ea bc fc e9 55 bc dd 50 26 bb
       0.0013618773 -0.028629491 -0.0130562745 -0.0025377788
0000a0 e2 32 00 bd 41 57 7a 3c f0 62 bf 3c 2c 01 ce bc
       -0.031298526 0.015279592 0.023362607 -0.025147043
0000b0 2b 7f 24 bd dd be b1 3c c6 b1 19 3b 69 b5 11 3d
       -0.04016034 0.021697456 0.0023451908 0.035573397
0000c0 ec 98 28 bd 28 df 17 3c 3e 0c 64 bd 8d be f4 3c
       -0.041161463 0.009269513 -0.055675738 0.029876018
0000d0 57 4d 6c bd 7c eb 01 bd 45 9d 6d bc b0 95 c3 bc
       -0.057690945 -0.031718716 -0.014502828 -0.023875087
0000e0 f8 e0 73 bd b5 e5 56 bd 09 db 38 ba f9 c4 e4 3b
       -0.05954072 -0.05246516 -0.0007051682 0.006981489
0000f0 64 f1 89 bd 6b 0d 07 bd 8a 6d 27 bd 07 be b5 bc
       -0.06735495 -0.03297178 -0.04087595 -0.022185339
000100 3a de 40 bc 8f c7 2f bb 50 98 9d bc 38 46 90 3c
       -0.011771733 -0.0026821827 -0.019237667 0.017611608
000110 ab 4c 4c 3d f9 c4 f5 bc 64 b4 e8 3a 5e 69 f0 bc
       0.049877804 -0.03000115 0.0017753956 -0.029347118
000120 3c 5b e6 bc 70 19 49 bc da e2 86 3b 04 37 41 bc
       -0.028119676 -0.012274131 0.0041163983 -0.011792902
000130 ef 2d 2c bd 75 3b dc bc f6 26 3f 3c 44 8e 14 3d
       -0.042035993 -0.02688382 0.011667004 0.036268488
000140 0d 26 45 bb 83 29 db 3b f6 a2 03 3c 96 93 67 bd
       -0.0030082494 0.006688298 0.008034458 -0.056537233
000150 12 73 90 bc 0c 95 96 bc 49 2e ed bc 84 83 a7 bc
       -0.017632995 -0.018381618 -0.028952735 -0.020448454
000160 f8 3e 8f 3c 72 82 b0 3a dc cb 27 3c 20 59 c0 3c
       0.01748608 0.001346661 0.010241475 0.023479998
000170 1b 7c 6d 3b 51 fa 36 bd 57 81 ce bc 16 f4 1d bc
       0.0036237303 -0.044672314 -0.025208158 -0.009640714
000180 e2 d9 b4 bc 43 75 1f bd 63 32 e8 bc 3e 72 09 bd
       -0.02207655 -0.03893019 -0.028344339 -0.033556215
000190 61 1c 6e bb 0a e8 0f bd 85 23 c6 3c af 2d a1 3b
       -0.0036332833 -0.0351334 0.024186859 0.004918776
0001a0 79 d7 0d bc 69 e8 bd 3c ee 1e 96 38 44 3f 0e 3d
       -0.00865733 0.02318211 7.1583185e-05 0.034728304
0001b0 24 44 7f bd bd 94 0a 3a bb fe 77 bc 01 d6 35 bd
       -0.062320843 0.0005286446 -0.015136416 -0.044393543
0001c0 d1 9e 0c bd 63 d7 8c 3c f6 cb 50 3c 5a d9 23 bd
       -0.034331147 0.017192548 0.012743941 -0.040002204
0001d0 74 b5 8a bb 12 3f a9 3b b5 fd 2d bb 38 42 32 bd
       -0.0042330567 0.0051649893 -0.0026548926 -0.043520182
0001e0 52 45 11 3b d5 9f ff bc aa 5c 87 bc 54 3d 5e bd
       0.0022166562 -0.031204144 -0.016523678 -0.054257706
0001f0 16 a6 67 bb 56 db c4 3c c2 ba 85 bc b0 3e bf bc
       -0.0035346798 0.024030369 -0.016324405 -0.023345321
000200 05 bf 8a bb fe d8 c8 bb c8 94 1f 3c 6a 26 f8 bc
       -0.004234197 -0.006129383 0.009740062 -0.030291755
000210 14 e7 06 3d c2 0b 23 bd 2a 6b a2 bc 66 50 47 bd
       0.032935217 -0.039806135 -0.01982649 -0.04866066
000220 01 ab 4c 3c 53 ba 09 bd e3 9e 46 bb 42 8d d0 3b
       0.012491942 -0.03362496 -0.0030307106 0.0063644955
000230 e7 1f 1f bd 43 85 3b 39 81 ec 45 bd f5 38 8c 3c
       -0.038848784 0.00017883354 -0.04832125 0.017117003
000240 de c1 eb bb 18 de d3 bb 46 27 71 bc 5c 30 f0 3b
       -0.0071947416 -0.0064656846 -0.014718836 0.0073299836
000250 bc a1 14 3c 6c 7d 23 3c 1f 3d 14 bc 84 0f c1 3c
       0.009071764 0.009978633 -0.0090477755 0.023566969
000260 00 b3 0b 3d 8a 78 93 bc 2c 75 c9 bc 86 72 13 3c
       0.034106255 -0.018001813 -0.024592005 0.0089994725
000270 05 df 38 3c a5 8f 26 bd d4 63 ab 3b a6 d1 16 bd
       0.011283641 -0.040664334 0.0052304063 -0.03682103
000280 00 9d 1f 3c 7d 97 c9 3b bf 27 b4 bc f0 88 37 bc
       0.009742022 0.006152092 -0.021991609 -0.011202082
000290 8b 92 d8 bc 26 5e 0a 3b 72 d6 8e bc cf ea f3 bb
       -0.026437065 0.0021113246 -0.01743624 -0.007443763
0002a0 e1 19 25 bc cb 88 9d 3b dc 55 7b bd 1c 60 77 bc
       -0.010076971 0.0048075668 -0.06136118 -0.015098598
0002b0 c4 51 06 bd 59 87 8b 3c 54 20 fe 3c a2 fc a9 bc
       -0.03279282 0.017032312 0.031021275 -0.020750348
0002c0 32 d1 e0 bc b3 62 df 3a 0e e8 c5 bc 79 d3 1f bd
       -0.027443502 0.0017042964 -0.024158504 -0.039020035
0002d0 4b 74 78 3c ef 9b 2f bd 3d 5d 60 3c 3f 50 88 bc
       0.015164445 -0.04287332 0.013694105 -0.016639827
0002e0 b5 77 7a bc 25 72 24 bc 07 b5 b8 3b 9b c8 f6 bc
       -0.015287329 -0.01003698 0.0056368145 -0.030124953
0002f0 e0 be 27 3c 34 33 47 3c 19 40 5f bc 65 ea ef 3c
       0.010238379 0.012158204 -0.013626122 0.029286573
000300 cd 2d fd 3b ee 1f 0c bd dc fa 1a bd 67 2f 02 bc
       0.007726407 -0.034210138 -0.037836894 -0.007945872
000310 5c ff 62 3b 8f 44 14 bd 6b b0 65 bd 65 80 0d bd
       0.003463707 -0.036198195 -0.05607645 -0.034546275

fc2.weight f4 [100, 200]
000000 24 40 e6 3c 53 3a 93 3d 28 01 96 bc 1d a6 03 bd
       0.028106757 0.07188859 -0.018311098 -0.03214084
000010 43 58 84 bc d1 7c 88 bd 2d 7c e3 3c 82 65 43 3d
       -0.016155368 -0.06664432 0.027769173 0.047704227
000020 65 49 20 bd fa ac 63 bb ce e7 b1 bb d2 84 be bc
       -0.039132494 -0.0034740553 -0.0054292446 -0.023256693
000030 62 99 e2 bd 9a 25 72 3d 4a 05 e7 bb 8f 63 d8 bd
       -0.11064412 0.05911789 -0.007050191 -0.10565864
000040 39 51 8c bd a2 54 c4 3c 01 a7 88 ba 92 1b 14 bd
       -0.068514295 0.023966137 -0.0010425748 -0.036159106
000050 8e ba fa 3c 09 74 d0 3b 2e 8e 5d bc 82 55 51 3c
       0.030606534 0.0063614887 -0.013522668 0.012776734
000060 a6 13 32 3c 67 b8 28 bd 31 47 37 bc dd e4 cf 3c
       0.010868942 -0.041191485 -0.011186407 0.025377685
000070 38 3d f5 3c 52 2c 74 bd d7 df 81 bd ee 4b 15 bd
       0.029936418 -0.05961258 -0.06341522 -0.036449365
000080 4e 06 93 3c de a5 18 bc 86 f1 a4 3c c7 aa 8a bd
       0.017947342 -0.00931689 0.020134699 -0.067708544
000090 66 f3 54 3c 83 10 30 3c f2 5d 60 ba 1f 91 19 3d
       0.012997484 0.010746124 -0.0008558921 0.037491914
0000a0 06 e0 4c 3c 93 2c 05 3d 58 2c ad bd 80 dc ac bd
       0.012504583 0.032513212 -0.084557235 -0.084404945
0000b0 79 d3 af bd d5 89 e3 bc 6c 2a ce 3d 5b f4 ab 3a
       -0.08585257 -0.027775684 0.10066685 0.0013119088
0000c0 72 dc 24 bc 00 7f f0 bd a2 35 8b bc 59 f6 32 3d
       -0.010062324 -0.11742973 -0.016993348 0.043691967
0000d0 86 a0 06 bc da 5e 8a bc b7 9c f5 3c 49 51 ff bd
       -0.008216983 -0.016890932 0.029981954 -0.12466676
0000e0 58 28 69 bd 59 40 85 3c 8e de 1a 3d 14 bd d2 3c
       -0.05692324 0.016266035 0.0378099 0.025724925
0000f0 e4 c0 cb 3c a0 72 a4 bc b9 24 95 3a 87 5e 83 bc
       0.02487225 -0.020074189 0.0011378742 -0.016036285
000100 62 95 18 3c c6 8a 8a 3a e7 80 ca 3c 19 04 29 3d
       0.009312959 0.0010569922 0.024719669 0.041263673
000110 2a a0 fe bb 2b d7 bf bc 7a bf 3b bd 40 f3 4e bc
       -0.007770558 -0.02341803 -0.045836903 -0.0126312375
000120 3b b3 f2 3d 36 a5 09 3d 0b 6a 7a 3d 78 4d 23 be
       0.11850592 0.033604823 0.061136287 -0.1594752
000130 0d 6f 63 b9 e8 a2 9f 3d 58 8a 1c 3d a4 0f 0f bc
       -0.00021689777 0.07794744 0.038217872 -0.008731756
000140 57 1d 08 3d 60 08 1d bd ef 5b de 3c 28 50 cd 3b
       0.033231106 -0.038338065 0.027143447 0.006265659
000150 24 20 75 3c 9f 0d 90 bd a5 bb 1a bd ec 63 40 bc
       0.014961276 -0.07033848 -0.037776608 -0.011742573
000160 58 0e 21 3c 1a 54 93 3c cf 88 93 3c a7 fe 40 bd
       0.00983008 0.017984439 0.018009571 -0.047117855
000170 a0 c3 d1 bd dc fd 8f bd a3 c0 9a 3d ae de 67 bc
       -0.10242391 -0.07030842 0.07556274 -0.014152212
000180 2f ab 8a 3d e9 2d 87 bc 93 d2 b9 bc c2 6e 2e 3e
       0.06770932 -0.016501384 -0.022683417 0.17034438
000190 29 f3 2a 3d 1c 36 6b bd f0 87 87 bc d8 94 aa 3d
       0.0417358 -0.05742465 -0.016544312 0.08329171
0001a0 b2 c5 cf bc 7b 5f 26 bd 50 9f 02 bd f6 1d bc bc
       -0.025362823 -0.0406184 -0.031890213 -0.022963505
0001b0 b2 dd a4 3d 0c 36 03 3d 6a 65 67 3d 08 81 1b 3d
       0.080500975 0.032033965 0.0564932 0.03796485
0001c0 39 a9 94 bd ea b7 b8 bd b4 12 37 3a d0 f7 41 bd
       -0.07258839 -0.09019454 0.0006983683 -0.047355473
0001d0 c1 89 8d bd 8b a6 a4 3d 98 46 03 3c 8d 0c ba 3d
       -0.0691104 0.08039578 0.008012436 0.09084425
0001e0 c7 48 ae bc cd 20 a7 bd ed be f5 3d 64 21 57 bc
       -0.021274937 -0.08160553 0.11999307 -0.01313052
0001f0 a1 95 f2 3d 96 57 7f bd 69 7a 6f bd 26 b1 97 3c
       0.11844946 -0.062339388 -0.05846635 0.018517088
000200 16 ac fe bc 13 a7 00 be 16 41 8f bd 7f 0b a4 bc
       -0.031087916 -0.12563734 -0.06994836 -0.020025013
000210 3c 74 5d bd 8d 80 a1 3c 54 ee 09 3b 47 1e a6 bc
       -0.054065928 0.019714618 0.0021046596 -0.02027811
000220 9e 54 d3 bc 16 be 4c bd 33 c7 4f 3e b1 ad cf 3d
       -0.025797185 -0.049985968 0.20290832 0.10140551
000230 c3 18 c6 bb f3 61 88 3d a5 4a e3 3c a0 fa 1f 3d
       -0.0060454323 0.06659307 0.027745554 0.039057374
000240 e2 ce a6 bd ec 7d 2d 3d 4e a3 f1 3c 4e 53 28 bd
       -0.081449285 0.042356417 0.029496815 -0.04109507
000250 cf 55 8a 3d 4a 58 66 3c be da d1 bd 60 4b c3 3a
       0.06754648 0.014059136 -0.102468 0.0014899783
000260 94 ae 80 bd 50 31 f4 3c d7 d8 18 bb c6 eb 2c bd
       -0.06283298 0.02980867 -0.0023322606 -0.04221704
000270 0c 55 ce 3c 8f 1f 8b bb ea c5 21 3d 7f b3 f5 3c
       0.025187038 -0.0042457054 0.039495386 0.029992817
000280 b8 69 a5 3c e2 48 98 3d 4b e4 69 bd f7 27 c8 bd
       0.020192012 0.07435776 -0.057102483 -0.09773248
000290 56 d5 8b 3d 2d cb bb 3b 51 9a d6 bd bc c4 ed bd
       0.068278 0.0057310075 -0.10478652 -0.1160979
0002a0 7f 38 0c bd b2 68 b8 3d 30 91 70 bd f2 ff 53 3c
       -0.034233566 0.09004344 -0.05873221 0.01293944
0002b0 fd ba 09 bd 10 78 b2 3d 0c 91 01 bd dd 5e 91 bd
       -0.03362559 0.08714306 -0.031632468 -0.07098172
0002c0 06 27 23 3d af 4e 33 3d 47 6e 1a 3b 63 8d dc 3d
       0.039832138 0.04377621 0.0023564266 0.10769155
0002d0 eb b6 b2 bc 77 43 07 3c e6 3a d4 bd 29 70 1a 3c
       -0.021815738 0.008255831 -0.103627965 0.009426155
0002e0 86 e2 61 b9 db 2c b0 3c b7 56 0c bd 4d 3e a3 bb
       -0.00021542059 0.021505764 -0.034262385 -0.004981792
0002f0 ed 57 d7 bd 6f 50 76 bb 45 fd b6 3d 76 94 3c 3e
       -0.105148174 -0.0037584563 0.08935026 0.18416008
000300 a3 60 49 bd 8f 57 ad bd f5 9e 87 bd 9e 97 3a 3d
       -0.049164426 -0.08463966 -0.066221155 0.04555475
000310 3e 8d 3b 3d a6 4e bd ba 82 d5 d5 bd 04 f1 3c bd
       0.045788996 -0.0014442995 -0.10441114 -0.046128288
000320 be 12 ec bd a0 3a a0 bd cc 13 1e be 78 0c 37 3e
       -0.11527012 -0.07823682 -0.1543724 0.1787585
000330 2d b7 0e 3d fd 51 1d 3c c6 b7 c1 3d b9 93 cb bc
       0.03484266 0.009602067 0.0945888 -0.024850713
000340 f5 d6 0c 3b 51 a8 9a 3d a5 ee 92 bd 2e 05 d1 3c
       0.002149043 0.07551635 -0.07174424 0.025515165
000350 1b af a9 3d 1d 82 ae bd 9a 97 60 bd 3b 0a 61 3d
       0.08285352 -0.08520911 -0.05483208 0.054941397
000360 b9 4d 47 3d 9c 44 f4 3c b3 a5 5e 3c bb ca 9a 3c
       0.048658106 0.029817872 0.01358931 0.018895498
000370 15 ce 25 bd c1 e3 55 3d 2c 0a 8d 3d a3 de 8c bc
       -0.04047974 0.052219156 0.06886706 -0.017196005
000380 77 85 f6 3c 15 cf cb bc 4d 52 c2 3d f0 b2 9c 3c
       0.030092938 -0.024879018 0.09488354 0.019128293
000390 46 b2 62 3d 4b 17 01 bc 6e 3e 23 bd a6 80 7d bd
       0.055345796 -0.007879089 -0.03985446 -0.061890267
0003a0 b8 2c dd bc ab a4 18 be d8 83 21 3e b4 0d 94 bd
       -0.026998863 -0.14906566 0.1577295 -0.07229176
0003b0 c5 74 9e 3c 52 d1 08 3e 12 af 54 bd d3 33 ea bd
       0.01934279 0.133611 -0.051924773 -0.11435666
0003c0 c4 54 a9 bd 1e cd c9 bd b7 e3 11 be eb 32 f2 3d
       -0.08268121 -0.09853576 -0.14247023 0.11826118
0003d0 bc ab 4d 3c 20 ff c5 bc b3 be 7f 3d 6e b8 7b bd
       0.012553152 -0.024169505 0.062437724 -0.061455183
0003e0 d8 78 9f bd 39 85 12 be e1 7a 1e bd 76 8f 86 bd
       -0.07786721 -0.14308633 -0.038691405 -0.06570332
0003f0 48 83 fe 3d 33 e5 ba bc 27 bb c2 3d e6 81 7f 3d
       0.12427384 -0.022814369 0.09508353 0.06237974

fc2.bias f4 [100]
000000 da a1 91 bd 7a 03 d8 3d b6 84 2f bd a0 0e 01 bd
       -0.07110949 0.10547538 -0.042851172 -0.031508088
000010 f9 ac 55 bd fc f2 74 bd 3d 63 87 bc 36 83 0e 3e
       -0.052166913 -0.05980204 -0.016526813 0.1391724
000020 7b 32 0f 3d 68 33 3f 3d e6 35 a2 3d 3f be 82 bd
       0.03496025 0.046679884 0.079204366 -0.06383943
000030 38 24 9d bd c1 cd 93 bd 77 2c 5c 3d 2d a5 86 bc
       -0.07672924 -0.07216979 0.053753342 -0.016436184
000040 04 a2 0f bd d1 5a 2d bd 79 f4 c2 bb fb be 1b bd
       -0.03506662 -0.042322937 -0.0059495536 -0.03802393
000050 1b 8d fe bd ba e1 f4 bc 29 4c 91 3d 46 0e 11 bd
       -0.124292575 -0.029892791 0.070946045 -0.035414003
000060 12 36 1a bd 4a 9e c6 bd d3 48 40 ba 97 7a 0f bd
       -0.03764922 -0.0969816 -0.00073350704 -0.03502902
000070 ac f9 34 bc 7b 70 b4 3b 04 eb ec 3d 0b d9 de 37
       -0.011045855 0.005506573 0.11568263 2.656553e-05
000080 f4 ea c9 bc 10 ed 36 3d a6 34 92 bc b5 84 0b bd
       -0.024648167 0.044659674 -0.01784737 -0.034062106
000090 26 6a 33 3e 1a fc cb bd 77 70 44 bd 5e 7c 79 bc
       0.17520961 -0.09960194 -0.047958817 -0.015227405
0000a0 03 4d b7 3d 56 5b 2a 3d 6b 5d 81 bc b6 01 ac 3b
       0.08950236 0.04159101 -0.015791615 0.0052492274
0000b0 3f 5b bf bc a6 52 3b be 51 84 0e be b4 07 5d bd
       -0.02335894 -0.18293247 -0.13917662 -0.053962424
0000c0 59 9f 02 bc e5 09 89 bd 3f 53 e5 bc f3 5b 86 bd
       -0.007972562 -0.0669134 -0.027993796 -0.06560507
0000d0 86 8c 98 3d 16 7e f1 3c c9 c2 07 bd 44 67 a3 3d
       0.07448678 0.029479068 -0.033144746 0.07978681
0000e0 2a 9b ab 3d 04 68 b9 bc 5e 13 76 3e 41 d4 4b bc
       0.083792046 -0.022632606 0.24030825 -0.012440742
0000f0 b1 1c 69 bd 43 e2 0d be 83 c3 78 bd 10 4a 37 3d
       -0.056912128 -0.13855843 -0.06073333 0.044748366
000100 ca a1 e1 bd 59 a8 ac bd 6a 09 fb 3c 46 c5 18 bd
       -0.11017187 -0.08430547 0.030644137 -0.03729751
000110 5e e0 0d 3c f5 95 52 bd 73 a1 52 bd f9 3d 9b bb
       0.00865945 -0.05141254 -0.0514235 -0.0047376123
000120 c1 eb f0 3c 42 da 84 3d 1c 1f 51 bd 59 f7 36 bc
       0.029409291 0.06486942 -0.05105506 -0.011167371
000130 15 04 bc bd c5 11 26 3c ca 22 2c 3d b0 e0 1c 3d
       -0.09180466 0.0101360725 0.042025365 0.038300216
000140 ee 58 15 bd f2 5e 26 bc 3e e7 02 bd 94 c3 9a 3c
       -0.036461763 -0.010154473 -0.03195881 0.018892087
000150 fd 45 fc 3d df 3b a6 3b 12 65 b9 bd bb a3 91 bd
       0.12318037 0.005073055 -0.09052481 -0.07111307
000160 12 6e 54 bd c3 e5 63 bc a0 fb a0 3b c4 03 20 3d
       -0.051862784 -0.01390976 0.0049128085 0.03906609
000170 5e ed c8 bc 00 5e 91 bc 99 79 2f bb 82 b0 f8 bd
       -0.024527248 -0.017745018 -0.0026775359 -0.12143041
000180 85 57 eb bb 6a e8 4c 3d 2e 0e 1b 3d b1 cd b6 3d
       -0.007182064 0.050026335 0.03785532 0.08925951

fc3.weight f4 [60, 100]
000000 95 77 53 bc 20 58 f1 bc 74 1e 1e 3c 53 68 d7 3c
       -0.012906929 -0.029460967 0.009650815 0.026294863
000010 11 26 f0 3b 12 34 9a 3c 26 c8 da 3d 15 e5 ec 3b
       0.0073287566 0.018823657 0.106827065 0.007229457
000020 5f fe 23 bd 54 ca 86 3d 45 26 d3 3d 04 0f 2f bd
       -0.04003751 0.0658156 0.10310034 -0.04273893
000030 93 60 97 3d 6d b7 bb bd 88 ef 05 3e 43 b1 9a bc
       0.07391467 -0.09165845 0.13079655 -0.018883353
000040 9b 83 03 3d 53 9b ff 3c b4 f6 07 3b a6 17 9a 3d
       0.03210793 0.031201994 0.0020746412 0.07524042
000050 a0 e3 12 3e 7f bb 9a 3c c3 ff 89 3b cb 24 84 bd
       0.14344645 0.018888233 0.0042113974 -0.0645233
000060 7b b5 cb 3c b0 e0 f3 3d 13 23 1c 3d 41 e5 42 3d
       0.02486681 0.1190809 0.038119387 0.047581915
000070 cb ca 03 be db 6d 98 bc da d1 bc bb fe 2a ab bc
       -0.12870328 -0.01860707 -0.005762321 -0.020894524
000080 92 e2 3f bd c5 ef e9 bc f4 f6 a5 bc 7d b9 15 bd
       -0.046846934 -0.028556714 -0.020259358 -0.03655385
000090 11 a2 a8 3d a7 ba 07 be 9f f2 dd 3d 92 fb 55 3c
       0.08234037 -0.13254796 0.10837292 0.013060467
0000a0 41 65 07 bd 03 6c a2 3d dc 35 29 3e 3c 0e 11 bd
       -0.033055548 0.07930758 0.16524452 -0.035413966
0000b0 8d bb d1 3d 37 59 42 bc 10 77 1d bd 8a 29 fa bc
       0.102408506 -0.011862091 -0.038443625 -0.030537385
0000c0 a9 32 50 be 87 f6 b4 3c b7 58 38 3d a8 59 b4 3d
       -0.20331825 0.02209021 0.04500648 0.08806163
0000d0 6f 26 d7 bc ff 27 c8 bd cc df 86 bd 4b 50 91 3c
       -0.026263444 -0.09773254 -0.065856546 0.017738482
0000e0 e5 9a f6 3c 54 04 cc 3d 8e 02 43 bd 5f c3 e8 bc
       0.030103156 0.09961763 -0.04760986 -0.028413473
0000f0 49 72 c2 bd 1f 49 23 3e ca c1 ac bc 23 70 67 3c
       -0.094944544 0.15945862 -0.0210885 0.014125857
000100 dc 62 bd 3d 58 3f a5 bd 6e 52 9b 3d 00 a4 93 3c
       0.092473716 -0.080687225 0.075840816 0.018022537
000110 6e ad 7c 3d 22 8d c6 bd 26 5c b3 bd 05 11 53 bd
       0.061688833 -0.09694888 -0.0875781 -0.051529903
000120 d9 fe d3 bd 00 16 ab 3d bc d8 37 bd 84 82 c8 3b
       -0.10351343 0.083538055 -0.04488443 0.0061190743
000130 b2 9a 2d be f6 82 d4 3c 4b 0e b4 3b 48 01 a7 bc
       -0.16953543 0.025941353 0.005494868 -0.020386353
000140 3b c4 46 ba cc 46 3b be 42 e3 83 3d 70 f5 f0 bc
       -0.0007582341 -0.18288726 0.0643983 -0.029413909
000150 a6 33 f1 bc 96 9f 12 be 72 d1 db 3c af 09 1f bd
       -0.029443573 -0.1431869 0.02683327 -0.038827594
000160 e0 69 a4 bd 8e 61 b4 3b e8 e4 36 3c 19 81 a8 bd
       -0.080280066 0.0055047935 0.011162974 -0.082277484
000170 c3 ef 39 be e2 8f 0a bc 85 f2 b3 bd ae df 14 3d
       -0.18157868 -0.008457156 -0.08786491 0.03634613
000180 88 80 0d be ee 9c 51 bd d1 50 28 be 7e ee 28 be
       -0.13818562 -0.05117505 -0.16437079 -0.16497228
000190 98 cf ba bd 08 e9 76 3d 7d 3f 6b 3d b8 ed 01 3e
       -0.091216266 0.06028083 0.057433594 0.12688339
0001a0 e3 6d 32 3e 75 3d 13 3d d3 48 8c 3c a0 03 e9 bb
       0.17424731 0.035947282 0.017124569 -0.007111028
0001b0 b7 30 5d bc 19 2e 63 3d 14 a0 7d bc ef f1 e4 3d
       -0.013500384 0.055463884 -0.01548006 0.11178958
0001c0 53 50 bb 3d bc dd 95 3d 8c f5 23 3e 57 2a 5e bc
       0.0914618 0.07317683 0.16011637 -0.013559899
0001d0 08 5b 34 3d 77 09 08 3e 2d 09 35 3e 29 1d 77 bd
       0.044032127 0.1328486 0.17679282 -0.060330544
0001e0 8c ef ba 3c 35 8b 27 3c 9b ff cd bd 90 f0 eb 3d
       0.022819303 0.010226061 -0.100585185 0.11520493
0001f0 cd 6d 95 3d 04 b3 06 3e 0a 4c ac 3c 49 ed 6f bc
       0.072963335 0.13154227 0.021032352 -0.0146439755
000200 8c 81 dd bc 82 1a ab bd 78 2c 90 bd 5a bc 32 bc
       -0.027039312 -0.08354665 -0.07039732 -0.010909164
000210 e6 88 45 bd 1d 36 1f be 1d d0 35 3c e6 4f 9e 3d
       -0.04822626 -0.15547986 0.011096981 0.07730083
000220 9f 37 8b 3d 69 24 c9 3d 4b ee 81 bd 1f b2 21 3e
       0.06797718 0.09821398 -0.06344279 0.15790604
000230 b9 5b c7 bd cd c4 a5 bc f7 45 d9 3b 27 6d 45 3d
       -0.097342916 -0.020235443 0.006630655 0.0481998
000240 2b 33 db bd 85 36 66 3d 54 a6 b7 bd e3 6f ad bd
       -0.10703119 0.056204338 -0.089672714 -0.08468606
000250 e8 a8 a5 3d ea ed 57 bc d9 5a c6 bd 1e b6 f3 3d
       0.08088857 -0.013179282 -0.096852966 0.118999705
000260 e7 84 86 bd dd 48 78 3d e5 cc 83 3d 3d c1 1a be
       -0.06568318 0.060616363 0.06435565 -0.15112777
000270 e4 29 d7 bd 69 cb bd 3d ec 53 38 3d 07 e1 f3 bb
       -0.10506037 0.09267313 0.04500191 -0.007442597
000280 66 11 b3 3d 6e 54 01 3e ea 26 d4 3c 7c b4 89 3d
       0.08743553 0.12629864 0.025897462 0.06723878
000290 56 7b f4 bd b8 fa 47 bd 28 c2 79 bd 7a 4e 44 3c
       -0.11937587 -0.04882309 -0.060976177 0.011981601
0002a0 e1 1e fb bd 67 f6 f8 3c d7 fa 48 3d 1b fd 77 3d
       -0.12261749 0.030390931 0.049067345 0.060544115
0002b0 60 87 34 bd 0e 19 20 be ac 4c 96 bd eb c4 75 bd
       -0.044074416 -0.15634558 -0.07338843 -0.06000225
0002c0 7d 29 ce bd bf d9 40 3e e9 b4 38 bd 90 89 6a 3d
       -0.10066507 0.18833064 -0.045094404 0.057260096
0002d0 37 e1 2e be 57 14 ce 3d 84 1b 1a bd 64 4c 28 be
       -0.170781 0.10062473 -0.037623897 -0.1643539
0002e0 cb 44 04 bd c8 95 17 3c 51 52 3e bd 97 a4 f3 bc
       -0.03229217 0.009252019 -0.04646522 -0.029741568
0002f0 b4 1d d9 bc a3 52 84 3c b7 e8 04 3d a4 f4 35 be
       -0.026503421 0.016152686 0.032448497 -0.17769104
000300 de ad 0a 3e ad 0c 71 bc 9b 78 e6 3d 88 3f bd bd
       0.13542888 -0.014712495 0.112534724 -0.09240633
000310 14 b6 ac bd 91 22 5e bb 2c b0 09 3d 4e 83 74 bd
       -0.08433166 -0.0033895115 0.033615276 -0.059695534
000320 8d 14 67 3e 5f 59 39 be db c9 e8 3d e8 c0 93 bc
       0.22566433 -0.18100499 0.11366626 -0.01803632
000330 8c 5d 91 bd bb 4a 34 bd 88 81 8a 3d 99 e5 5d be
       -0.07097921 -0.04401658 0.067629874 -0.21669616
000340 bf cb b3 3d 2f 0a 0f be 0b aa a7 bd 03 1e 20 be
       0.08779096 -0.13968728 -0.0818673 -0.15636449
000350 2d b0 6d 3d 33 f2 9e bd e6 62 dd 3d a7 9f 94 bc
       0.058029342 -0.077610396 0.10809879 -0.018142534
000360 08 e8 7e 3d ad 1d 31 3d f0 f8 7a 3c be d5 43 3c
       0.062233 0.04324119 0.01531814 0.011952816
000370 d8 6f a4 3d 2d 92 95 3b 39 87 e6 3d fe e3 c9 3d
       0.08029145 0.0045645447 0.112562604 0.09857939
000380 5d f2 9d 3c 3f 86 9a 3d 00 65 82 bd 6e 01 cc 3d
       0.019280607 0.07545137 -0.063669205 0.0996121
000390 6a f8 cd bd 89 05 ba 3c f3 2f 0c be 90 25 7a 3d
       -0.10057147 0.022707717 -0.13690166 0.06107098
0003a0 b3 77 c2 3d c7 34 22 3e 44 fb c1 3b 86 08 83 3d
       0.09495487 0.15840445 0.005919846 0.0639811
0003b0 58 13 eb 3b 83 dc a8 3d e3 ed 8a 3d b3 18 02 3e
       0.007173937 0.08245184 0.067836545 0.12704735
0003c0 e0 dd d7 bc 12 b1 4b bd 4d 62 1b 3e 13 30 f6 3d
       -0.026350915 -0.049729414 0.15174218 0.12020888
0003d0 87 62 31 3e 1f 5c f0 3d 54 69 65 bb a7 06 dc 3d
       0.17322741 0.11736321 -0.0035005407 0.10743456
0003e0 af a0 c8 3d 8c ef ca 3d 9f 0a d3 bc 5f fd cf bc
       0.09796273 0.09908971 -0.0257619 -0.025389371
0003f0 1b cc 87 bd cf f2 d7 bd 4f e4 10 bd fc 92 b6 bc
       -0.06630727 -0.10544359 -0.035373982 -0.022286884

fc3.bias f4 [60]
000000 67 40 87 3d 43 89 b7 bd 00 07 9a 3c 29 6c ce 3d
       0.06604081 -0.089617275 0.018802166 0.10079224
000010 e1 fd 6b 3e 4c e8 1f be 53 6e d7 bc 35 d9 19 3e
       0.23046066 -0.15615958 -0.026297724 0.15024264
000020 84 19 e8 bc 1e ec 0c 3d 22 eb 5a 3d cd cc 70 bd
       -0.02833248 0.034404866 0.053446896 -0.058789063
000030 41 84 93 3d d0 f6 81 3d 8c b4 1c 3b 59 20 23 3b
       0.0720296 0.06345904 0.0023911325 0.0024891107
000040 5e a9 1b 3e c4 a8 d6 bc 5e f0 04 3d ee c2 e2 3c
       0.15201327 -0.02620352 0.032455795 0.02768084
000050 fb 4c 70 39 40 9d d7 bd 34 1f 31 3e f1 d6 7a bc
       0.00022916861 -0.1052804 0.1729706 -0.015310035
000060 2f e0 6a 3d 52 83 cf bd f7 9f 2b bc 44 b1 7a 3d
       0.057342704 -0.10132469 -0.01047515 0.06120421
000070 69 0d 36 3d b9 65 15 3e be b6 a4 3d ce 65 0f 3e
       0.044446383 0.14589585 0.08042668 0.14003679
000080 1a cd 63 3d 77 b6 c2 bc 44 a7 3b 3e dd 44 1f 3e
       0.055615522 -0.023768647 0.18325526 0.15553613
000090 07 1b 64 3c bc 89 b7 bb ff 92 0b 3c 6a 1b 2b 3e
       0.013922459 -0.005601136 0.008518933 0.16709676
0000a0 62 72 62 3e 03 30 26 3c ac 09 39 3d b3 15 ae 3d
       0.22113946 0.010143283 0.04517524 0.085002325
0000b0 c6 af d4 3d a6 4b 4e 3c 05 5b c4 ba 44 b6 9a bd
       0.103850886 0.012591278 -0.0014980739 -0.07554296
0000c0 95 fc cb 3d 15 fa b3 bd 07 79 12 bd 82 1d cf bd
       0.099602856 -0.08787934 -0.035759952 -0.1011305
0000d0 dd 65 82 3d e3 97 16 bd 8d 81 7b bd 0b 26 2f bc
       0.06367085 -0.036765944 -0.061402846 -0.0106902225
0000e0 01 3f 69 3d 4e 29 52 bd 68 ae 74 3e f5 76 55 3c
       0.05694485 -0.051308922 0.23894656 0.01302885

fc4.weight f4 [30, 60]
000000 51 7f 8e 3d 08 8b 93 bd c9 8d 88 3e 92 45 d3 3d
       0.069578774 -0.072042525 0.26670673 0.10316004
000010 0a 14 65 3e 27 30 50 be ed 11 2d 3e 82 50 91 bd
       0.22370926 -0.20330869 0.1690137 -0.07095434
000020 98 db 28 3e ed bb a3 3d 16 7c 6e 3e 79 9b 4d 3d
       0.16490018 0.079948284 0.23289523 0.0501971
000030 7c b3 9e 3d 05 ac 69 3e e6 fa 18 3e 26 4c 8b bd
       0.07749078 0.22819526 0.1493946 -0.068016335
000040 cb e6 14 3d 15 6b fb 3d 27 fe fc bd c4 ce 9c 3e
       0.036352914 0.12276284 -0.12353163 0.306265
000050 58 14 42 3e 72 74 93 3d f6 3e 67 3e fd 77 67 bd
       0.18953073 0.071999446 0.22582611 -0.056510914
000060 5b fe ec 3d 8e c4 58 3e 71 a7 26 3e 21 02 5b 3d
       0.11571952 0.2116873 0.16274811 0.053468827
000070 ff e2 98 3d 01 7f 5e 3d ca 4f 35 be c1 83 c9 ba
       0.07465171 0.05432034 -0.17706218 -0.0015374349
000080 6b c7 b8 bd 7d b0 ca bd 3d c5 c1 3d f5 46 ef bd
       -0.09022411 -0.09896944 0.09461448 -0.11683456
000090 a1 6f a7 3c 95 bd 94 3c d4 6f ff bd 84 6e 6b 3e
       0.020438971 0.018156806 -0.124725014 0.22991377
0000a0 2a 26 17 3e 3a f9 ed bd cf e3 4a bd 4a 8d 65 bd
       0.14760652 -0.11619802 -0.04953366 -0.056042947
0000b0 09 47 4a bc bb ea 0e be 6a 51 00 be 6c a0 96 bd
       -0.012346038 -0.1395673 -0.12531057 -0.07354817
0000c0 5a b0 cc 3a 56 1e c5 bd 57 62 16 3e 4a 7c b9 bd
       0.0015616522 -0.09624927 0.14685951 -0.090569094
0000d0 95 b1 b0 3d f7 64 1f 3e 23 bf 4b 3e 3f 71 a3 bd
       0.08627621 0.15565859 0.19897132 -0.07980584
0000e0 9d 89 70 3e 57 a5 8f 3e 08 67 50 bd 82 de 9c bd
       0.23489995 0.28055832 -0.05087951 -0.076596275
0000f0 3d 3c 8c 3d fd 8f bc 3d 84 f0 d9 3d 4a 5c 9d ba
       0.06847427 0.09207151 0.10641578 -0.0012005654
000100 ec a4 af bd de 4e e1 bd 66 b9 c8 3c 12 85 d3 bd
       -0.08576378 -0.11001371 0.024502467 -0.103281155
000110 38 68 94 bd 20 33 45 bd d3 eb c3 bd bf ec fc bd
       -0.07246441 -0.04814446 -0.09566464 -0.12349843
000120 66 94 cd bd d8 c8 ce 3d 48 aa 42 bc 9d 35 2a 3d
       -0.100380704 0.10096902 -0.0118814185 0.041555036
000130 35 cb 3b 3c 57 0c 81 bd 4b d3 00 bd 81 8b 81 bd
       0.011462023 -0.06301182 -0.031451505 -0.063254364
000140 eb 38 c8 bd 5b 54 da 3d f8 51 fd 3c 58 fc 93 3d
       -0.09776481 0.10660621 0.030922875 0.07225865
000150 f6 c7 66 3d 91 6f 2c 3d aa 30 ff 3d b2 2a b3 3d
       0.05634304 0.042098586 0.12460454 0.08748378
000160 f6 f2 e5 3d 74 6a d5 bd 34 91 c4 bd 3f 6a c1 bd
       0.11227982 -0.10420695 -0.09598008 -0.09444093
000170 49 a7 eb bd 80 79 11 bd 9f da d5 bd bb f5 0d be
       -0.115065165 -0.035516262 -0.10442089 -0.1386327
000180 4f 5e b7 bd 6a 2a 0a 3d d7 f7 7a 3c 73 d6 b3 3d
       -0.08953535 0.033731855 0.015317879 0.08781137
000190 d7 49 3d bd ce 52 34 bb ed f3 88 3d c8 f0 d0 3d
       -0.046212997 -0.0027515176 0.0668715 0.102021754
0001a0 50 52 ec bd 50 57 93 3d 5d f4 fb 3c 41 21 e3 bd
       -0.11539137 0.07194388 0.03075617 -0.11090327
0001b0 7b 70 d9 bc c1 75 e3 bd c5 98 66 bd d3 b4 04 be
       -0.026542893 -0.11106444 -0.056298036 -0.12959604
0001c0 28 c3 ca bd 0c a4 ae 3d 10 0e ad bd c1 85 af bc
       -0.09900504 0.08527383 -0.08449948 -0.021426084
0001d0 9e ba 00 be d1 2a de bd d6 49 09 3d 0b bd c0 3d
       -0.12571189 -0.1084801 0.03351768 0.09411057
0001e0 86 9f 6d 3d c2 15 99 bd b0 65 82 3d de a4 a0 bd
       0.05801346 -0.07474853 0.063670516 -0.07843946
0001f0 b4 10 22 3e 75 78 fc 3d 2a 37 23 3c 42 be 98 bc
       0.15826684 0.12327663 0.009961883 -0.01864541
000200 a3 4c 14 3e 6b b7 34 be ca cb d7 3d 8c 5a 1d 3d
       0.1448236 -0.17648093 0.105369166 0.03841643
000210 f0 b0 ec bd 5c d0 30 3e ae 0b 66 3e bf 9c 98 bc
       -0.11557186 0.17266983 0.22465393 -0.01862943
000220 24 6b 22 3e 4f f9 9b 3d f2 0f 8b bd 84 d5 aa 3c
       0.15861183 0.07615911 -0.06790151 0.020853765
000230 53 07 27 3e 8e a8 16 3d 46 f0 8e 3e 03 aa 4f 3e
       0.16311388 0.03678184 0.2791769 0.20279698
000240 d2 fb a7 3c 36 9c 40 3e 27 15 12 3e 60 48 92 3d
       0.02050582 0.1880959 0.14265881 0.07142711
000250 22 6b 30 3e db 2e 1d be a1 f0 6d bd 38 45 30 bc
       0.17228368 -0.15349905 -0.05809081 -0.010758691
000260 b5 6b 1b be 46 46 cb bd df 59 89 3e 77 33 93 3d
       -0.15177806 -0.09925513 0.2682638 0.071875505
000270 f1 c0 ed bb 96 64 61 bd 59 0c 57 3e 60 93 a2 3d
       -0.0072556664 -0.055027567 0.21000804 0.07938266
000280 ff 75 8b 3d 8c 6a c4 3c 53 35 c8 3d 9b ce 2f bd
       0.06809615 0.023976587 0.09775796 -0.042921644
000290 d0 99 08 3e 5d b2 64 bd ba 2c 35 bd e8 9e a7 3e
       0.13339925 -0.055834163 -0.044232108 0.32738423
0002a0 a3 b6 bd bd ab a5 a9 3d b8 25 84 be 77 2b 77 3d
       -0.09263351 0.08283552 -0.25810027 0.060344186
0002b0 d9 fd 1d be a3 a1 04 bd ef 2e c9 bc bd 20 e7 3d
       -0.15428866 -0.03238071 -0.024558512 0.11285541
0002c0 c0 02 ff bd 77 45 64 be 18 cf 1e 3e a5 73 05 3e
       -0.124516964 -0.22292124 0.15508687 0.13032396
0002d0 ce 1c 4e be e8 c5 4d 3e 4a 6a e5 3c eb f3 bf 3d
       -0.20128176 0.20095026 0.028004784 0.093726955
0002e0 bc 0c 44 3e a4 17 0d be 61 a9 9a 3d 05 77 dc bd
       0.19145483 -0.1377855 0.07551838 -0.10764889
0002f0 0f 85 f2 3c c5 6d b5 bd c2 ac 3a be 8b 51 6d 3d
       0.029604463 -0.088588275 -0.18229964 0.057939094
000300 93 d8 61 3e 31 ed 2b 3d c4 a5 10 bd c7 4e 49 3e
       0.22055273 0.04197425 -0.035314336 0.19658957
000310 3b 5f 0d be bd 6a 23 3e 44 54 62 3d 6b b6 fc 3c
       -0.13805859 0.15958686 0.055256143 0.030848702
000320 a3 7a ad 3d 7a 5a 77 3e 62 cd 0e be 56 5d 55 be
       0.08470657 0.24155608 -0.13945535 -0.20836386
000330 13 95 4a 3e 06 89 8f bd 4a 0c e1 bd 97 1c 75 be
       0.1978343 -0.07008557 -0.10988672 -0.23936687
000340 ae 82 0f 3e ab 5d 6a 3e 4c 82 e8 bd 65 6a 3f be
       0.14014694 0.22887294 -0.11352977 -0.1869293
000350 b0 7f 61 3d 3a 57 13 3d e1 be 67 3d 2d 08 14 3e
       0.055053413 0.035971858 0.05657852 0.14456244
000360 36 5c 1a 3e 60 b1 0b bd ac 08 ab bd 2a 6d 91 3e
       0.15074238 -0.034104705 -0.083512634 0.28403598
000370 24 81 2e be f4 ad 54 3e dd 92 e4 3d ec 5a 78 bd
       -0.1704145 0.20769483 0.111608244 -0.060633585
000380 3f 8a 22 be 5b bb 4e 3e f3 3e b5 3d 58 ab 70 bd
       -0.15873049 0.20188658 0.08849897 -0.058757156
000390 7f df 0d bd 17 62 48 3d 7a 15 16 3e f2 4c b4 3c
       -0.03463697 0.04892167 0.1465663 0.022009347
0003a0 61 5e e3 3d 43 ef 31 3e 53 f9 9e bc 5f 3f 0f 3e
       0.11101986 0.17376427 -0.019405996 0.13989018
0003b0 4c e8 9b 3e da 4b 2f 3e 9b 00 59 3d 1d e1 4e be
       0.30450666 0.17118779 0.052979093 -0.20203061
0003c0 30 8c 23 3e 76 d5 49 bc 17 8c 60 bd 05 a8 00 3e
       0.15971446 -0.012318959 -0.0548211 0.12564094
0003d0 33 f1 a8 3d 91 d0 ad 3d 07 c4 cc bb e9 d0 35 3e
       0.0824913 0.084870465 -0.006248954 0.17755474
0003e0 61 cf 00 3d 5b d9 f6 3d e4 cd 45 be e4 1e c6 3c
       0.031447772 0.12053176 -0.19316822 0.024184652
0003f0 05 6c 87 3d 84 f8 bb 3d c9 25 c3 3c 40 88 95 bc
       0.066124 0.0917826 0.023821728 -0.018253446

fc4.bias f4 [30]
000000 9f 09 f6 3d 7c 3b b6 bd 93 10 88 3e 9d 63 80 bd
       0.12013554 -0.088980645 0.26575145 -0.06269
000010 80 31 e3 bb 43 52 3e 3e 25 73 96 bc b6 1c d5 bd
       -0.006933391 0.18586068 -0.018365452 -0.10405867
000020 d7 fb 4a 3e ee bb 0b 3e 92 54 2a 3e a6 b3 20 3e
       0.19822632 0.13645908 0.16633824 0.1569353
000030 32 8a cc 3d 2a 8d 97 3e 9b f3 d1 3d a3 90 ad 3d
       0.09987296 0.29599887 0.10251542 0.08474853
000040 21 8b 3b 3e 20 4c bb 3d 78 00 b7 bd 93 b1 97 bd
       0.18314792 0.09145379 -0.08935636 -0.074069165
000050 c9 5f 43 3d e4 7c c0 bc ee 5b 97 bc aa e4 c0 3d
       0.04769877 -0.023497052 -0.018476453 0.09418614
000060 24 58 48 3e 7c cd d1 3d f6 2c e3 3d 6b 1f 8b 3d
       0.19564873 0.10244271 0.1109256 0.06793102
000070 06 f5 1d bd 47 90 0a 3e
       -0.03856375 0.135316

fc5.weight f4 [10, 30]
000000 cf 9c f1 be 89 a1 01 3d 81 0a 1b bf af 1e 18 3d
       -0.47189948 0.031648193 -0.605629 0.037138637
000010 a9 f3 08 bf 0a 39 bd 3d 4c a9 7e 3e 39 e2 78 be
       -0.53496796 0.09239395 0.24869269 -0.24305047
000020 a3 3b c1 be af 2e 80 3e b6 a2 35 bd d0 7b 0b bf
       -0.37740812 0.25035617 -0.044344626 -0.544858
000030 33 9d 7b bb 47 e9 5b 3d a5 06 10 bf ad 1a 37 bd
       -0.0038393259 0.053689267 -0.5626014 -0.044703174
000040 27 e9 95 bd 79 a3 08 3c 26 6e 99 3d 20 63 da bd
       -0.07319861 0.008339756 0.07491712 -0.10663438
000050 ed d6 8b be 22 6f 1f bf aa 24 a5 3d 2d 3d c3 ba
       -0.27312413 -0.6227895 0.08063634 -0.0014895551
000060 d2 5b a2 bd 85 10 8f 3d e8 0b 3a 3e 27 9a 36 3e
       -0.079276696 0.06985573 0.18168604 0.17832242
000070 9d b1 9b 3d b7 db 9c be ac 1a 15 3e d4 be c5 3b
       0.076022364 -0.3063638 0.14560956 0.0060347114
000080 df 41 71 3e 8f cb b8 be bc e7 1d be 60 be 9e be
       0.23560284 -0.36092803 -0.15420431 -0.3100462
000090 aa ac 07 bf 8c 68 07 be 0d ae a1 be c4 58 b5 be
       -0.5299784 -0.13223475 -0.31578103 -0.35419285
0000a0 0a c4 4f be 31 4e 4a be 3c 4b f7 bd 77 d2 54 3e
       -0.20289627 -0.1975639 -0.12074897 0.20783411
0000b0 d0 2d 3c be e0 d6 72 be 47 0b c8 3d ae 56 bb 3c
       -0.18376851 -0.23714781 0.09767776 0.02286848
0000c0 86 9c 22 be 68 43 14 3e 93 65 66 be 94 87 1a 3e
       -0.15880021 0.14478838 -0.22499685 0.15090781
0000d0 75 e7 b1 bd a7 04 5e 3e 9c 5b 13 bf 5a 66 dc be
       -0.08686725 0.21681462 -0.5756166 -0.43046838
0000e0 01 bb ab be 14 ac b0 be e0 fa 1c be f1 d4 d6 3e
       -0.3354111 -0.34506285 -0.15330076 0.41959336
0000f0 53 99 85 be a1 b1 18 3e 1a d6 26 3e 50 4c 6e 3c
       -0.2609354 0.1491151 0.16292611 0.0145445615
000100 56 6f d3 3d 9b f6 0c 3e 1e ae 03 bf ed 44 c4 3d
       0.1032397 0.13765948 -0.51437557 0.09583459
000110 0c b7 74 be c5 cc d2 3c 6b 52 1d 3e 35 a5 b9 be
       -0.23897952 0.025732407 0.15363471 -0.36258855
000120 33 d9 06 3d b0 75 c6 be 0c f7 06 bf 00 97 be be
       0.03292198 -0.38761663 -0.52720714 -0.3722458
000130 53 f2 cd be 6d 74 b4 3e 70 d1 93 3c e2 e4 d9 be
       -0.4022394 0.35245076 0.018044204 -0.42557436
000140 79 79 a0 be 89 c4 f0 be 9f 53 28 be e8 e2 b4 be
       -0.31342676 -0.47024944 -0.16438149 -0.35329366
000150 9d b2 0a be 4b 83 b8 be 06 74 c5 3d 65 95 0b bd
       -0.13544698 -0.3603767 0.0964127 -0.03407802
000160 00 cb 9b 3d d6 69 02 be 62 04 17 be e4 f8 f3 bc
       0.076070786 -0.12735686 -0.14747766 -0.029781766
000170 46 a0 c1 3b c5 3a e1 be 52 39 18 bd 5a f1 bb be
       0.0059089987 -0.4399015 -0.03716404 -0.36707574
000180 79 79 c3 be 78 b0 1f 3e de ff 94 be 24 c9 9f be
       -0.38178614 0.15594661 -0.2910146 -0.31208146
000190 4c 62 af be 24 5c 2e 3e 99 6e 39 be a2 4d ce be
       -0.34254682 0.17027336 -0.18108596 -0.40293604
0001a0 a5 ed 32 be 30 a2 f0 3b 53 8d 04 3e 38 ed 0a 3e
       -0.17473467 0.007343553 0.12944536 0.13567054
0001b0 f0 04 9c be 2e d5 d2 be 0c d3 29 be 12 f5 08 3e
       -0.30472517 -0.41178268 -0.16584414 0.13374737
0001c0 c7 4e 4f bd 91 ca 17 bf d1 f2 0b 3e 3a 91 56 3e
       -0.050612237 -0.59293467 0.13666846 0.20953837
0001d0 47 32 2c 3c 65 65 79 3d 0c 42 9a bd e1 83 e0 be
       0.010510034 0.060887713 -0.07532129 -0.43850616
0001e0 05 9b ec 3c 77 c4 2a 3d 20 b7 09 be 8b fd b3 3e
       0.028882513 0.04169127 -0.13448763 0.35154375
0001f0 c3 c1 d9 3d 2e 2d a4 bd 74 35 e2 be 59 a9 c2 be
       0.1063266 -0.0801643 -0.44181406 -0.38019827
000200 ed f1 a9 3e e0 eb 00 3e 44 57 46 be 93 bf b6 bd
       0.33192387 0.12589979 -0.19369227 -0.08923259
000210 2b 7b 72 3d b2 6f 96 bd f4 40 07 3e 14 a0 e9 3d
       0.059199493 -0.07345523 0.13208371 0.114074856
000220 97 6f 67 be 92 2f d8 be 75 d4 8f bd 60 25 c8 be
       -0.22601162 -0.42223793 -0.07022945 -0.39091015
000230 04 62 94 be 7b b3 96 3b a4 bd 2f be 77 a5 7e be
       -0.2898103 0.0045990325 -0.17162186 -0.24867807
000240 16 68 37 bf e2 a5 02 bf 14 88 82 3d 20 ce 7d be
       -0.716432 -0.5103437 0.06373611 -0.24785662
000250 68 bb 3a be 45 e2 a5 be 9c b5 d1 be 60 39 2d 3e
       -0.18235552 -0.32399192 -0.4095887 0.16916418
000260 8c 1b 77 bd d1 c4 a8 be 73 b9 cf be 69 e5 96 be
       -0.060329005 -0.3296266 -0.40571174 -0.294719
000270 d1 f2 16 3e 70 82 c1 3d e2 57 13 bf 12 65 10 bd
       0.14741065 0.09448707 -0.57555974 -0.03525264
000280 59 b1 f9 bc e7 15 24 3e ee 6d 10 be 41 2f 9a be
       -0.030480074 0.1602398 -0.14104435 -0.30114177
000290 9b 85 2e be 2e 14 87 3e a3 9f 4b 3b d2 e7 f0 be
       -0.17043154 0.26382583 0.0031070493 -0.47051865
0002a0 f7 b6 b1 be 3d fd 5d 3d da c2 ff be 08 6d 4b 3e
       -0.34709904 0.054196585 -0.49953347 0.19865811
0002b0 d8 45 53 be 99 d7 53 be 1c 08 db 3c e1 94 c0 bc
       -0.20632112 -0.20687713 0.026737265 -0.023508491
0002c0 93 fe 5a 3e 79 77 c7 be 06 53 b6 3d c7 7d 78 be
       0.21386175 -0.38958338 0.08902554 -0.2426673
0002d0 16 34 16 be f0 93 dd 3c ae 11 ea 3d 73 a5 96 be
       -0.14668307 0.027048081 0.114291534 -0.29423103
0002e0 23 e6 83 be 54 d4 35 be ff 77 fd 3d 76 7f 03 bf
       -0.25761518 -0.17756778 0.12376403 -0.51366365
0002f0 3f 1e 07 be 1e 19 4a 3e 9b 37 9b 3e 9a 5d d0 be
       -0.13195132 0.19736144 0.3031586 -0.40696412
000300 08 2e d9 bd a8 3e 57 be 40 36 93 be f6 32 21 3e
       -0.10604483 -0.21019995 -0.28752327 0.15742096
000310 95 f3 c5 be c6 2b 82 be 1d 45 a8 3d ab 82 bb 3d
       -0.386624 -0.2542402 0.08216307 0.09155782
000320 57 28 b7 3e 65 b6 ce 3d c8 56 c6 bd f9 ce c0 be
       0.35772964 0.10093383 -0.09684521 -0.37657908
000330 54 f4 c5 be 71 80 f9 be cb 3e ac be f4 75 81 be
       -0.3866297 -0.48730806 -0.33641657 -0.25285304
000340 e2 44 23 3e 89 74 99 be 04 dc 80 3e 42 37 bc 3c
       0.15944245 -0.29971722 0.2516786 0.022975568
000350 b7 69 af be 36 2b 55 3e 90 43 4b 3c 93 b8 86 3e
       -0.34260342 0.20817265 0.012406245 0.26312694
000360 f5 1e 20 3d d2 96 b6 3c 43 77 8c be cd f0 17 bf
       0.039092023 0.022288714 -0.2743474 -0.5935181
000370 2b 8c 04 bf 0e 6a ca be fa d8 5e bd 50 70 dd be
       -0.5177638 -0.39534038 -0.054406144 -0.4324975
000380 36 d9 79 bd df a1 f4 be a9 07 7e bd 0f 30 79 be
       -0.060998164 -0.47779748 -0.062019024 -0.24334739
000390 ae b7 a3 be d5 7c b1 bd 25 40 a8 bb e4 f9 e4 be
       -0.31976074 -0.08666388 -0.0051345997 -0.447219
0003a0 15 02 9d 3c 41 97 fc bd b1 5f c8 3d 04 6d 2b 3d
       0.019166032 -0.12333537 0.09783877 0.041852012
0003b0 2a ec c2 be 1e 64 97 bc 6a 5e 0a bd 12 74 6d 3e
       -0.38070804 -0.018480357 -0.033781447 0.23188809
0003c0 d5 3e 20 bd ae 12 c6 3d 95 08 37 3e dc ed f7 be
       -0.03912242 0.096715316 0.17874368 -0.4842366
0003d0 ff cf 20 be cd 0b 0e 3e a2 db c2 be 75 af f9 be
       -0.15704344 0.13871689 -0.38058192 -0.48766676
0003e0 0d 28 0b 3e 4c e2 e9 3d 33 8c 52 3e 0f 6a 54 3e
       0.13589497 0.11420116 0.20561294 0.20743583
0003f0 62 4e 1a bd fc 95 26 3e a0 8e 04 bf 78 3c 19 bc
       -0.037672408 0.16268152 -0.5178013 -0.009352796

fc5.bias f4 [10]
000000 f7 53 36 be ff a6 4a be 86 65 a7 3d 46 cf 9a bd
       -0.17805468 -0.19790266 0.08173661 -0.075590655
000010 a6 3d a7 3d e4 49 b7 bd 96 cf d4 bd 7f 18 b2 bd
       0.081660554 -0.089496404 -0.103911564 -0.086960785
000020 ec 7a c4 3d 1b f1 44 3c
       0.09593758 0.012020375
