models/mnist/checkpointFCNet3.pt (torch, 750505 bytes, 18 tensors)

fc1.weight f4 [200, 784]
-0.0134158265 0.012907542 0.033014912 0.018841973 0.035448875 0.013895325 -0.030074699 -0.028094785
0.033282775 0.029778687 0.024822822 0.029447628 0.019230608 0.026493944 -0.025587633 0.00021096792
0.03206623 -0.017091788 -0.031199122 0.0065967385 -0.008685488 -0.03141602 -0.031037224 0.02082395
-0.008825107 -0.017254476 0.011302471 -0.02142304 -0.0077727474 -0.011166561 0.019502992 0.014056366
-0.015937347 0.027598016 -0.02970388 -0.0007919229 -0.012994708 0.014766488 -0.015242704 0.018814659
0.023541968 0.02991127 -0.0138826445 0.0178036 -0.0033177806 -0.009256526 0.0070236884 0.034771588
-0.027015278 0.0009889405 -0.026055682 0.018476846 0.023025787 0.03441533 0.01800503 0.03158221
0.019605035 0.027935667 0.024717197 0.013529647 -0.004575524 -0.03219648 0.034865122 -0.0025196765
0.02912105 0.031127663 0.02152211 -0.018729089 0.014044007 0.032250438 -0.013945633 0.005345482
0.055025816 0.0183572 -0.0057544527 -0.030475134 0.01644258 0.022184556 -0.004476653 -0.019749787
-0.0034337828 -0.007841046 0.035487052 0.029904215 0.0094988085 0.018062042 0.013525225 -0.010722573
0.034709107 0.01909619 -0.024916163 -0.037636448 -0.013477731 -0.020047272 -0.030445384 0.02278934
0.051253967 0.0741163 0.021651058 0.016233446 0.035835214 0.024426423 0.042258464 0.0077472497
0.020662075 0.027460499 0.019923527 -0.030904144 0.005317977 0.01496188 0.02014817 -0.013540257
-0.02454826 0.0015903333 -0.0077669676 0.012665133 0.020690326 0.009252178 -0.030649265 0.021144027
-0.029554855 0.029870335 0.04208935 0.079598896 0.106946304 0.053404033 0.1254228 0.10373401
0.1360194 0.066658445 0.08762915 0.04521613 0.029314812 0.0015979465 0.010708081 -0.003997636
0.004545572 0.039306793 -0.008405749 0.0198252 0.018707858 0.017194768 0.035133112 -0.023367401
-0.03432015 -0.026199775 -0.016013224 -0.0060235746 0.013853454 0.051361423 0.026335783 0.068490885
0.048902452 0.02555692 0.10504903 0.09411092 0.0817797 0.030172946 -0.02458071 -0.03121348
-0.03717594 0.017351642 0.011980521 0.0136293 0.007478015 -0.0053126756 -0.020500997 -0.0041650473
-0.025448654 0.023980768 0.00078826083 -0.030113393 -0.009341908 -0.03480693 -0.05582221 0.01877067
0.043352876 -0.0078732055 0.039699435 0.095532104 0.13729925 0.054867346 0.07344597 0.054672897
0.036569603 0.01691987 0.04864898 0.04157822 -0.03594686 -0.0019108678 -0.02078571 0.049304385
0.04342117 -0.009334108 0.02244751 0.031020213 0.015216196 -0.026785927 -0.02595878 -0.05571097
-0.010491713 -0.03855898 0.0023034138 0.04536505 0.12473184 0.07946663 0.047491256 0.09620417
0.051185787 0.061832894 -0.03028958 -0.02712659 -0.024414761 -0.020561868 0.045820307 0.03440778
0.014145801 0.017457707 0.010040247 0.01411183 0.0015316751 -0.0014608735 0.015956692 0.023732932
-0.03308519 -0.0136765065 -0.02197658 -0.03610634 -0.052111715 -0.023246292 0.008846393 0.09157139
0.13208233 0.06764269 0.08422137 0.035838287 0.055897016 -0.090680525 -0.062339306 -0.04191441
-0.063137695 0.0038845968 0.0035470375 -0.012201239 -0.09765308 -0.020543305 0.028431773 0.016712334
-0.015618479 0.030053847 -0.0027437543 0.005967065 -0.021778338 -0.019990817 -0.03867147 0.018956052
00000000: 0ece 5bbc 287a 533c a53a 073d 7b5a 9a3c
00000010: d732 113d 38a9 633c 375f f6bc 0927 e6bc
00000020: 8553 083d 6ff2 f33c 3b59 cb3c 273c f13c
00000030: 8289 9d3c d409 d93c 289d d1bc 4537 5d39
00000040: e157 033d 1404 8cbc 4d95 ffbc 7429 d83b
00000050: 944d 0ebc 16ae 00bd c741 febc fd96 aa3c
00000060: 2e97 10bc 4259 8dbc 002e 393c 5f7f afbc
00000070: 88b2 febb f4f3 36bc bdc4 9f3c ac4c 663c
00000080: 0a8f 82bc 3c15 e23c 8d55 f3bc 0c99 4fba
00000090: c1e7 54bc 24ef 713c 89bc 79bc 3321 9a3c
000000a0: 16db c03c 7b08 f53c 0874 63bc dbd8 913c
000000b0: 1f6f 59bb afa8 17bc f826 e63b a76c 0e3d
000000c0: 254f ddbc 569f 813a ba72 d5bc c15c 973c
000000d0: 93a0 bc3c 17f7 0c3d 497f 933c 595c 013d
000000e0: bd9a a03c 57d9 e43c b87b ca3c 74ab 5d3c
000000f0: 47ee 95bb 75e0 03bd bbce 0e3d 2821 25bb
00000100: 458f ee3c 71ff fe3c 234f b03c bf6d 99bc
00000110: d618 663c 0919 043d 397c 64bc 2729 af3b
00000120: c062 613d d761 963c d98f bcbb fda6 f9bc
00000130: 97b2 863c 63bc b53c e3b0 92bb 4eca a1bc
00000140: 5109 61bb bb77 00bc df5a 113d aff9 f43c
00000150: e4a0 1b3c d9f6 933c e898 5d3c bbad 2fbc
00000160: 232b 0e3d 9d6f 9c3c fb1c ccbc ad28 1abd
00000170: b3d1 5cbc 2d3a a4bc 9968 f9bc b6b0 ba3c
00000180: aeef 513d 49ca 973d 8f5d b13c 01fc 843c
00000190: f2c7 123d ec19 c83c 3617 2d3d a4dc fd3b
000001a0: 8343 a93c d7f4 e03c aa36 a33c b02a fdbc
000001b0: 6d42 ae3b ac22 753c c60d a53c f4d7 5dbc
000001c0: 6f19 c9bc bb72 d03a 0c82 febb 6b81 4f3c
000001d0: c27e a93c 7296 173c 2b14 fbbc 3d36 ad3c
000001e0: 061d f2bc a2b2 f43c e265 2c3d bf04 a33d
000001f0: aa06 db3d 30be 5a3d d66e 003e 7f72 d43d
00000200: ab48 0b3e 3984 883d e976 b33d 8c34 393d
00000210: 9e25 f03c 3072 d13a f270 2f3c 9afe 82bb
00000220: 06f3 943b 2900 213d 44b8 09bc 7568 a23c
00000230: 3941 993c 0bdc 8c3c bde7 0f3d fe6c bfbc
00000240: 4993 0cbd e9a0 d6bc 2a2e 83bc 6861 c5bb
00000250: 99f9 623c 5b60 523d 24be d73c f344 8c3d
00000260: f04d 483d bf5c d13c f223 d73d 3abd c03d
00000270: 1e7c a73d 412d f73c 7c5d c9bc 69b3 ffbc
00000280: cc45 18bd 0825 8e3c f249 443c 6d4d 5f3c
00000290: 230a f53b f415 aebb b5f1 a7bc f37a 88bb
000002a0: b279 d0bc 5173 c43c 4aa3 4e3a 5db0 f6bc
000002b0: cd0e 19bc b691 0ebd d4a5 64bd f3c4 993c
000002c0: c992 313d 9efe 00bc e09b 223d 56a6 c33d
000002d0: 2d98 0c3e 95bc 603d d76a 963d b0f0 5f3d
000002e0: 02ca 153d 8a9b 8a3c 2744 473d ec4d 2a3d
000002f0: 043d 13bd 1576 faba cb46 aabc 65f3 493d
00000300: 66da 313d 16ee 18bc d7e3 b73c 1a1e fe3c
00000310: 5a4d 793c 296e dbbc 82a7 d4bc 3031 64bd
00000320: 6fe5 2bbc 05f0 1dbd dff4 163b b4d0 393d
00000330: 6873 ff3d 67bf a23d 3186 423d b106 c53d
00000340: 30a8 513d 7d44 7d3d da21 f8bc 9538 debc
00000350: 7701 c8bc 5d71 a8bc 13ae 3b3d 2cef 0c3d
00000360: cac3 673c 7703 8f3c d97f 243c 4e35 673c
00000370: 7dc2 c83a c87a bfba 9cb7 823c 916b c23c
00000380: 5684 07bd 6d13 60bc 3b08 b4bc 3ee4 13bd
00000390: 1873 55bd 026f bebc 76f0 103c c889 bb3d
000003a0: 9740 073e 4088 8a3d 417c ac3d 2bcb 123d
000003b0: 45f4 643d b6b6 b9bd 8057 7fbd 72ae 2bbd
000003c0: 564e 81bd b894 7e3b 6a75 683b b5e7 47bc
000003d0: 57fe c7bd 6f4a a8bc c0e9 e83c 4ee8 883c
000003e0: a6e4 7fbc 7c33 f63c 8fd0 33bb 5f87 c33b
000003f0: 7c68 b2bc c8c3 a3bc fa65 1ebd b949 9b3c

fc1.bias f4 [200]
-0.03509916 0.0008560832 0.0032541135 0.02718812 0.011133261 -0.017275345 -0.02273112 -0.007553158
0.006554498 -0.005492963 0.021563014 0.0346543 -0.031154528 -0.004390749 -0.0026834572 -0.031518877
0.023043022 -0.02345078 -0.014309851 0.0051508774 0.0031973654 -0.017500147 -0.023607377 -0.013892245
-0.0010683772 0.034513634 0.0034040671 0.00845347 0.019446522 -0.0057346616 -0.026787004 0.009377675
0.028500756 0.017430827 -0.029429313 -0.010783197 -0.023116317 0.021260992 -0.012458176 0.009724715
-0.033289276 -0.011180924 0.011509488 0.009668475 0.010006969 -0.012471086 -0.010848967 -0.0011545477
-0.028439352 -0.017553113 -0.022702044 0.007759878 0.026970012 -0.013305061 -0.016860263 -0.032367278
0.011502157 -0.022558693 -0.03259135 -0.029776752 0.0076270914 -0.023864454 -0.026395148 0.017314462
0.03336457 -0.0076661976 -0.005531126 -0.015852267 0.03393834 -0.012241132 -0.022559779 -0.01712578
-0.0045232205 -0.021098502 -0.005573425 0.0050266623 0.017818946 -0.018469296 -0.022831064 0.0284713
0.009392948 -0.0071559967 -0.006229477 -0.026025193 0.025665715 -0.011191926 -0.009283274 0.012877963
-0.028862117 0.033685412 -0.03267874 0.018171145 0.03390491 0.026815064 -0.03472204 0.032890964
-0.024207601 -0.006395893 0.034577426 0.023413103 0.01000123 0.032593127 -0.019707412 0.03405416
0.004378373 -0.02913179 0.011529246 0.01419671 0.0037734136 -0.022168905 0.0023748828 0.0065358663
-0.013339362 0.020567492 0.008325002 0.0075439443 0.025875436 0.031133935 -0.0117512215 -0.005106238
-0.019315643 -0.018078469 0.016591365 0.010870642 -0.0030107975 0.005448783 0.026258817 -0.023034254
-0.018544966 0.024798576 0.006023379 0.024243496 0.035593916 -0.0039065885 0.0018165266 -0.026336696
0.013352948 0.0026147908 0.026713435 -0.0012099805 0.021518927 0.0052499934 -0.0054661483 0.034040634
0.034947094 -0.025711156 0.010157468 0.006824077 -0.026526073 -0.011194785 0.015096041 -0.011059031
-0.019020988 -0.023407903 0.010373161 0.025378764 -0.020155087 -0.0057966476 0.023034638 -0.01146586
-0.0007624444 -0.010970663 -0.011921619 0.03313727 0.020412173 -0.02265119 0.0068864734 -0.019251877
0.0024242077 -0.0033284945 0.034136277 -0.033437766 0.0327878 0.025212817 0.032717478 0.011435861
-0.012009141 0.014973085 -0.023158075 -0.015543797 0.017365184 -0.010196005 -0.030468328 -0.027278068
-0.028258178 -0.013766699 0.002101111 -0.004001977 0.0054860744 -0.03254004 -0.010555908 0.0031286841
0.018903052 -0.03054087 0.027773233 -0.027210135 0.01946729 -0.016018938 0.035667665 0.016792357
00000000: 23c4 0fbd c56a 603a f742 553b 9fb9 de3c
00000010: 4868 363c 0685 8dbc 9d36 babc 7b80 f7bb
00000020: 1dc7 d63b 50fe b3bb eba4 b03c abf1 0d3d
00000030: c837 ffbc 46e0 8fbb f1dc 2fbb f019 01bd
00000040: b8c4 bc3c da1b c0bc de73 6abc b1c8 a83b
00000050: e48a 513b 785c 8fbc 4264 c1bc 4c9c 63bc
00000060: ca08 8cba 2b5e 0d3d c516 5f3b 6c80 0a3c
00000070: 504e 9f3c d4e9 bbbb 6b70 dbbc d2a4 193c
00000080: 6b7a e93c 18cb 8e3c be15 f1bc 02ac 30bc
00000090: 6e5e bdbc 882b ae3c 611d 4cbc 6954 1f3c
000000a0: 565a 08bd 3230 37bc 4b92 3c3c 8668 1e3c
000000b0: 45f4 233c 8753 4cbc debf 31bc 3154 97ba
000000c0: a5f9 e8bc 8ccb 8fbc a3f9 b9bc 9346 fe3b
000000d0: 37f0 dc3c 78fd 59bc 891e 8abc 8d93 04bd
000000e0: 8b73 3c3c 02cd b8bc 827e 05bd 60ee f3bc
000000f0: aeec f93b 637f c3bc a33a d8bc 0fd7 8d3c
00000100: 4aa9 083d ba34 fbbb 733e b5bb 9ddc 81bc
00000110: ee02 0b3d 078f 48bc 49cf b8bc 5d4b 8cbc
00000120: 8637 94bb c4d6 acbc 47a1 b6bb b3b6 a43b
00000130: 0af9 913c ec4c 97bc 3608 bbbc a53c e93c
00000140: e1e4 193c da7c eabb a420 ccbb c932 d5bc
00000150: e840 d23c 575e 37bc e018 18bc 17fe 523c
00000160: 3f70 ecbc b7f9 093d 24da 05bd a7db 943c
00000170: e0df 0a3d 44ab db3c b338 0ebd adb8 063d
00000180: 054f c6bc a494 d1bb 0fa1 0d3d d6cc bf3c
00000190: 33dc 233c 5f80 053d 7071 a1bc 607c 0b3d
000001a0: 7478 8f3b cba5 eebc 2ae5 3c3c 5199 683c
000001b0: 604b 773b 909b b5bc eca3 1b3b d22a d63b
000001c0: 578d 5abc 287d a83c 9765 083c 3133 f73b
000001d0: b9f8 d33c 980c ff3c 3288 40bc 3b52 a7bb
000001e0: d73b 9ebc 4c19 94bc 9dea 873c c71a 323c
000001f0: cd50 45bb b48b b23b bb1c d73c 55b2 bcbc
00000200: 9deb 97bc 6226 cb3c c45f c53b 4c9a c63c
00000210: edca 113d d702 80bb 8518 ee3a 0ec0 d7bc
00000220: 53c6 5a3c e95c 2b3b 22d6 da3c 3598 9eba
00000230: 7648 b03c 2308 ac3b 601d b3bb 316e 0b3d
00000240: af24 0f3d 34a0 d2bc 826b 263c 829c df3b
00000250: 354d d9bc 556a 37bc 6355 773c f030 35bc
00000260: e7d1 9bbc eec1 bfbc 31f4 293c 20e7 cf3c
00000270: 481c a5bc cef1 bdbb 23b3 bc3c 4ddb 3bbc
00000280: c7de 47ba 4cbe 33bc e552 43bc f2ba 073d
00000290: 6e37 a73c fd8e b9bc eda7 e13b 1db6 9dbc
000002a0: 75df 1e3b df22 5abb 7bd2 0b3d 0af6 08bd
000002b0: 804c 063d 1c8b ce3c c302 063d 7a5d 3b3c
000002c0: fdc1 44bc ac51 753c 01b6 bdbc 69ab 7ebc
000002d0: 6e41 8e3c 250d 27bc b798 f9bc 4176 dfbc
000002e0: b27d e7bc b88d 61bc cbb2 093b 0423 83bb
000002f0: 87c4 b33b b448 05bd b0f2 2cbc 9c0a 4d3b
00000300: 93da 9a3c d930 fabc b184 e33c cae7 debc
00000310: de79 9f3c 263a 83bc 4218 123d 2090 893c

bn1.weight f4 [200]
0.96026635 0.9412467 1.0182571 1.002958 1.0107849 1.0396595 0.98130596 0.9816257
0.97905535 0.9914221 1.0423499 1.0607777 0.95465046 0.9755552 1.0056875 1.158896
1.0470912 0.8950835 0.984686 1.0129918 1.0028867 1.0917395 0.99949074 1.0448103
0.9735741 1.0463667 0.96992123 0.9754187 0.9523043 1.1018766 0.9855526 1.1475832
1.0466708 1.0325925 0.98042893 1.091663 0.9152309 1.0158341 0.9553613 0.97004384
0.99166834 1.0066706 1.0739663 1.0170088 0.9622121 1.0473119 1.0420103 0.95866984
0.92157227 1.0708506 0.94807243 0.97459793 0.97528714 1.0097107 1.1225468 1.0254698
0.93615663 0.8998632 1.1789079 1.0618261 1.0109073 0.9952673 1.141763 0.959012
1.0829484 0.98612654 0.9695346 0.998048 1.0086604 1.0743037 1.0294976 1.0027016
1.0474204 0.95091856 1.026463 1.1015366 1.0834062 0.99118644 0.9434892 1.0535629
1.0248978 1.0099357 0.9314005 1.0914084 0.96276754 1.0434291 1.0408283 1.0772804
0.9505526 1.1366559 1.0621016 1.0399084 1.0662701 0.9788016 0.97758436 0.9882723
0.9622548 0.9275086 1.0851798 1.026661 0.9346539 1.0523567 1.0343779 1.0003891
0.94185495 1.044946 1.0095439 1.0907986 0.99100715 0.9461774 0.92580736 0.973589
1.0587094 1.0479056 1.0435617 1.0639925 0.94092184 1.1422963 1.0697134 0.98420346
0.9821458 0.91710323 1.0187119 1.0230932 0.8891829 1.0034108 1.0696772 0.9640475
0.98627573 0.9456691 0.9920279 0.99313736 1.0176061 0.94560486 0.9972076 0.8950445
0.98215395 0.93398994 0.934803 1.0559194 0.9640536 1.0198066 1.0428069 1.0159929
0.93741083 1.0782077 1.0020785 1.021844 1.040644 1.0356864 1.1136613 0.9057721
0.97443235 0.984491 1.1090059 1.0465332 0.98926777 0.9836386 0.94664526 1.0032996
1.0254171 0.8797785 1.1906463 1.0303642 1.0926507 0.9866756 1.0752643 0.8596606
1.0443938 0.9545411 1.0840003 1.0986416 1.0153558 0.976462 0.9676416 1.038526
1.1128563 0.93447185 1.076846 0.96912503 0.988228 1.0171095 0.9823524 1.0207354
1.0546031 0.96027815 0.97075677 1.047397 1.0472772 0.98937947 0.99209845 1.0370009
1.0132709 1.1216077 1.0258135 0.98612905 1.1285969 0.98173124 1.0808096 0.9536037
00000000: 04d4 753f 8bf5 703f 4056 823f ee60 803f
00000010: 6661 813f 9013 853f de36 7b3f d24b 7b3f
00000020: 5fa3 7a3f d7cd 7d3f b96b 853f 90c7 873f
00000030: f963 743f fcbd 793f 5eba 803f b456 943f
00000040: 1607 863f 3124 653f 6214 7c3f b7a9 813f
00000050: 975e 803f 1fbe 8b3f a0de 7f3f 58bc 853f
00000060: 273c 793f 58ef 853f c24c 783f 0ab5 793f
00000070: 37ca 733f 4b0a 8d3f 2d4d 7c3f 02e4 923f
00000080: 4ff9 853f fe2b 843f 64fd 7a3f 9dbb 8b3f
00000090: 924c 6a3f da06 823f 8f92 743f cb54 783f
000000a0: fadd 7d3f 95da 803f ba77 893f 582d 823f
000000b0: 8853 763f 510e 863f 9860 853f 636b 753f
000000c0: 29ec 6b3f a211 893f e0b4 723f 407f 793f
000000d0: 6bac 793f 333e 813f 9daf 8f3f 9842 833f
000000e0: f6a7 6f3f 6f5d 663f 74e6 963f ebe9 873f
000000f0: 6965 813f d6c9 7e3f 4a25 923f cf81 753f
00000100: 0e9e 8a3f ca72 7c3f 6b33 783f 1380 7f3f
00000110: c91b 813f c982 893f 94c6 833f 8758 803f
00000120: df11 863f 666f 733f 2463 833f 27ff 8c3f
00000130: 0ead 8a3f 65be 7d3f 8288 713f 26db 863f
00000140: da2f 833f 9345 813f 4370 6e3f 45b3 8b3f
00000150: ef77 763f 168f 853f dd39 853f 53e4 893f
00000160: 6a57 733f f17d 913f f2f2 873f b81b 853f
00000170: 8a7b 883f be92 7a3f f842 7a3f 6aff 7c3f
00000180: 5556 763f 3471 6d3f 2ce7 8a3f a169 833f
00000190: 7a45 6f3f a0b3 863f 7f66 843f c00c 803f
000001a0: 681d 713f cac0 853f bc38 813f 4a9f 8b3f
000001b0: a5b2 7d3f af38 723f b601 6d3f 213d 793f
000001c0: ca83 873f c521 863f 6e93 853f e830 883f
000001d0: 41e0 703f c436 923f 5eec 883f c2f4 7b3f
000001e0: e86d 7b3f 47c7 6a3f 2765 823f b8f4 823f
000001f0: 7ea1 633f c46f 803f 2feb 883f d1cb 763f
00000200: 917c 7c3f 5f17 723f 8af5 7d3f 403e 7e3f
00000210: eb40 823f 2913 723f ff48 7f3f a321 653f
00000220: 716e 7b3f f719 6f3f 404f 6f3f 5e28 873f
00000230: 37cc 763f 0689 823f b27a 853f 0e0c 823f
00000240: 28fa 6f3f b602 8a3f 1c44 803f c9cb 823f
00000250: d333 853f 5f91 843f 748c 8e3f aee0 673f
00000260: 6674 793f 9a07 7c3f e8f3 8d3f cdf4 853f
00000270: a740 7d3f bdcf 7b3f 5857 723f 1f6c 803f
00000280: de40 833f 2a39 613f 1967 983f f9e2 833f
00000290: fadb 8b3f c696 7c3f 43a2 893f b812 5c3f
000002a0: b2ae 853f ce5c 743f 86c0 8a3f 4aa0 8c3f
000002b0: 2ef7 813f 6af9 793f 5cb7 773f 6cee 843f
000002c0: 1372 8e3f 8c39 6f3f 17d6 893f 9418 783f
000002d0: 83fc 7c3f a530 823f 727b 7b3f 75a7 823f
000002e0: 3cfd 863f cad4 753f 8483 783f 1b11 863f
000002f0: 2e0d 863f f947 7d3f 2afa 7d3f 72bc 843f
00000300: dcb2 813f d790 8f3f db4d 833f f472 7c3f
00000310: dd75 903f bd52 7b3f f857 8a3f 5f1f 743f

bn1.bias f4 [200]
-0.14109479 -0.1759381 -0.18739177 -0.19880441 -0.07308333 -0.034290355 -0.06701012 -0.24517071
-0.21254429 -0.120448925 -0.08995411 -0.098117374 -0.0193969 -0.12981184 -0.15684927 -0.054083794
-0.1432907 -0.12665763 -0.22867589 0.0057119485 -0.05300936 -0.09954151 -0.19124676 -0.118578166
-0.21906628 -0.15106331 -0.17279066 -0.17825158 -0.078001305 -0.054616682 -0.19589682 -0.09588004
-0.08501543 -0.10422416 -0.07863557 -0.17151226 -0.17915103 -0.1520041 -0.15255003 -0.05995758
-0.1263002 -0.20270063 -0.108867586 -0.2529041 -0.25672573 -0.1252351 -0.13878308 -0.08430248
-0.21274716 -0.013310018 -0.13276604 -0.14638382 -0.13235407 -0.07079585 -0.00432167 -0.13280462
-0.17174998 -0.22668894 -0.16905186 -0.14657646 -0.14251253 -0.12404585 -0.20207793 -0.117658846
-0.053845435 -0.18018888 -0.10487476 -0.15250161 -0.05383969 0.012762579 -0.11696858 -0.09439842
-0.21472533 -0.035155382 -0.13957524 0.008828669 -0.036643684 -0.23270288 -0.085593246 -0.13056234
-0.16294557 -0.1526681 -0.20403302 -0.1308811 -0.12653233 -0.12183876 -0.15507126 0.020520477
-0.14922561 -0.106786825 -0.071850516 -0.14644845 -0.20841056 -0.16461165 -0.19061096 -0.17888968
-0.17750394 -0.16229859 -0.08761891 -0.11276121 -0.14993401 -0.06644179 -0.041867297 0.027712857
-0.04485353 -0.12257918 -0.13246168 -0.14370757 -0.04843584 -0.17570643 -0.22031534 -0.13188252
-0.16885075 -0.13258786 -0.013649818 -0.019900246 -0.078940816 -0.08090256 -0.11137291 -0.14706145
-0.046146967 -0.051136307 -0.23003209 -0.18235716 -0.1259353 -0.0375628 -0.11585381 -0.109938316
-0.027663227 -0.16697618 -0.20381542 -0.08438642 -0.20924403 -0.21898653 -0.16122767 -0.23451504
-0.122197315 -0.18518247 -0.13822772 -0.03470841 -0.13401209 -0.20086542 -0.06674569 -0.15808843
-0.01305311 -0.09938002 -0.024556326 -0.12157443 -0.20080422 -0.14436726 -0.056353793 -0.19821016
-0.14185068 -0.14356178 -0.11299062 -0.0999909 -0.24597923 -0.054905493 -0.20966028 -0.21759786
-0.1575901 -0.15712129 -0.14593264 -0.07549633 0.010208034 -0.12333853 0.05682474 -0.1931369
-0.15051632 -0.15809698 -0.090969734 -0.07273294 -0.15452611 -0.05146873 -0.067187876 -0.07745662
-0.1219219 -0.09060106 -0.21702476 -0.15870896 -0.02364011 0.0028905899 -0.1543064 -0.1114552
-0.075867 -0.14064299 -0.16763371 -0.10773195 -0.18728054 -0.16299063 -0.041480843 -0.17198129
-0.06829521 5.1890984e-05 -0.0584739 -0.26432565 -0.036472496 -0.08803246 -0.14560448 -0.15295568
00000000: 277b 10be 1e29 34be a1e3 3fbe 6293 4bbe
00000010: b7ac 95bd 0b74 0cbd 9a3c 89bd 080e 7bbe
00000020: 36a5 59be edad f6bd dc39 b8bd c3f1 c8bd
00000030: 3fe6 9ebc 65ed 04be 189d 20be f886 5dbd
00000040: ccba 12be 8ab2 01be 032a 6abe 4c2b bb3b
00000050: 5820 59bd 6bdc cbbd 31d6 43be 1cd9 f2bd
00000060: e952 60be 57b0 1abe 09f0 30be 9587 36be
00000070: 26bf 9fbd beb5 5fbd 2d99 48be c15c c4bd
00000080: 921c aebd 7a73 d5bd b00b a1bd e9a0 2fbe
00000090: 5e73 37be f6a6 1bbe 1336 1cbe 1496 75bd
000000a0: d754 01be c190 4fbe f8f5 debd a57c 81be
000000b0: 8e71 83be a13d 00be 271d 0ebe c7a6 acbd
000000c0: 64da 59be 4312 5abc d2f3 07be a4e5 15be
000000d0: d387 07be 6afd 90bd cc9c 8dbb effd 07be
000000e0: 3adf 2fbe 2521 68be ee1b 2dbe 2418 16be
000000f0: ceee 11be c00b febd 84ed 4ebe 1ff7 f0bd
00000100: 088d 5cbd 6f83 38be 94c8 d6bd 6229 1cbe
00000110: 0287 5cbd 231a 513c 398d efbd f553 c1bd
00000120: f5e0 5bbe 17ff 0fbd d0ec 0ebe 1fa6 103c
00000130: b017 16bd aa49 6ebe 834b afbd 22b2 05be
00000140: 34db 26be 0755 1cbe 08ee 50be b205 06be
00000150: b191 01be 9a86 f9bd 00cb 1ebe 8f1a a83c
00000160: 99ce 18be 0db3 dabd 5d26 93bd 95f6 15be
00000170: 9469 55be f58f 28be 852f 43be db2e 37be
00000180: 98c3 35be 9a31 26be 8b71 b3bd 59ef e6bd
00000190: 4d88 19be a212 88bd 0b7d 2bbd 1306 e33c
000001a0: 56b8 37bd cb0a fbbd 09a4 07be 1428 13be
000001b0: a964 46bd 63ec 33be 589a 61be 360c 07be
000001c0: 36e7 2cbe 1dc5 07be 7ca3 5fbc d705 a3bc
000001d0: b9ab a1bd 3eb0 a5bd 7b17 e4bd 4797 16be
000001e0: 9a04 3dbd 4e74 51bd 888d 6bbe d6bb 3abe
000001f0: 2ff5 00be 73db 19bd c344 edbd 5727 e1bd
00000200: fe9d e2bc cefb 2abe fdb4 50be cad2 acbd
00000210: 1144 56be 013e 60be de18 25be b624 70be
00000220: 9642 fabd 79a0 3dbe 918b 0dbe 682a 0ebd
00000230: 773a 09be aaaf 4dbe f7b1 88bd efe1 21be
00000240: b6dc 55bc c087 cbbd 592a c9bc 04fc f8bd
00000250: 9f9f 4dbe 03d5 13be 3cd3 66bd 9bf7 4abe
00000260: 4e41 11be dc01 13be a067 e7bd 07c8 ccbd
00000270: fbe1 7bbe 95e4 60bd 2fb1 56be f9d1 5ebe
00000280: 4d5f 21be 67e4 20be 5e6f 15be d29d 9abd
00000290: 993f 273c e998 fcbd 0fc1 683d aec5 45be
000002a0: f320 1abe 2de4 21be 574e babd 02f5 94bd
000002b0: 183c 1ebe e0d0 52bd cc99 89bd 94a1 9ebd
000002c0: 30b2 f9bd 0c8d b9bd bd3b 5ebe 9a84 22be
000002d0: e7a8 c1bc 0d70 3d3b 7f02 1ebe a042 e4bd
000002e0: 2860 9bbd b704 10be 2ca8 2bbe 92a2 dcbd
000002f0: 78c6 3fbe 04e7 26be d1e7 29bd dd1b 30be
00000300: 5cde 8bbd 85a5 5938 5482 6fbd b155 87be
00000310: 2f64 15bd 5d4a b4bd 5719 15be 6aa0 1cbe

bn1.running_mean f4 [200]
-2.5722518 -0.2287895 -0.58439726 -3.0487673 -0.5105003 2.9908535 1.4369954 -0.25059956
-1.7721499 -0.2564384 1.2537016 -0.6375181 -0.007823666 -2.0010893 -0.9750028 -0.584469
-2.442803 -1.3039949 1.9157012 1.3998985 -0.55729073 -1.2161639 -0.45713624 0.067982115
-2.0497355 0.056539297 -2.539496 -0.046536855 -0.7590463 0.65979916 2.3841705 -0.35323802
1.2664999 0.41059604 -2.6129224 0.2661072 1.3103895 -0.6298597 0.42709744 0.712557
-3.5833223 -0.066645265 0.8273524 0.74153113 -0.5037674 -0.7828318 -2.263251 1.1370877
-0.02717399 1.3042865 -0.4838109 -0.039306205 -1.1696934 -0.2557467 1.9867753 1.085026
-0.37056598 -3.4950802 -0.61557436 -0.6083022 -2.1717496 -1.9376742 0.39419287 2.264429
-0.5358787 -0.94424856 -0.21923131 -1.1630249 -0.2930209 0.5935123 -1.2957549 -0.9614125
-0.019066727 -1.0616696 -2.627713 0.533881 0.121324934 -3.5378394 -2.1038625 -0.25853947
-3.0795457 -2.2045867 -2.8464103 -1.5257272 0.08227938 1.5252881 0.76504254 -1.3697529
-0.8327627 0.42214277 -0.64821774 -2.6515994 -0.62571216 -2.0101888 -2.2948716 -2.418709
0.5104561 -3.0980165 -1.2664876 0.5269402 -1.7597728 0.95041573 2.1514022 -1.5561119
-0.3796443 0.6270411 0.030764557 -1.952452 -0.51688063 -0.66817737 -0.15704241 -1.4068983
-0.07118773 -1.0608054 -1.3681846 -1.4321703 0.6011276 0.55106574 2.27685 -3.2620358
1.1114962 0.5101169 -1.3799243 -0.042371567 0.8091381 0.88962233 1.3681872 0.60664016
1.7727698 1.047625 -0.4297241 -0.27662528 0.5305718 -4.0265975 -2.07045 -0.7292982
1.7328517 0.2699397 1.7903489 -0.29320112 -0.89111865 0.66788536 -1.2223401 -1.2863728
1.6734662 2.4214442 0.41641864 -2.2164521 2.036855 -0.37748033 1.9929236 1.6440294
-0.97751224 -2.3971505 -2.1427233 -0.73754704 -0.8996138 0.5739717 -2.314712 1.1923722
-0.9963322 0.042633567 -0.7295751 -0.98274475 -0.1145993 2.053257 2.0097375 1.2325773
-0.268692 -3.477519 0.8987116 0.8029291 -2.1639066 -0.6672517 1.5190235 0.3298705
-0.18742897 0.9965441 -1.4009154 -1.913075 -1.3362303 0.9563438 0.002302972 0.9071362
-0.76000696 0.61024654 -6.3997874 -1.4731908 -0.70594096 -1.1981586 -0.013848117 1.8770816
-1.9233916 0.3026351 1.5213104 -0.5924613 1.1737723 -4.0895157 0.15347572 -0.025001967
00000000: c69f 24c0 cb47 6abe 0f9b 15bf 011f 43c0
00000010: 26b0 02bf 256a 3f40 77ef b73f 964e 80be
00000020: cfd5 e2bf e54b 83be 4b79 a03f 6334 23bf
00000030: d52e 00bc d911 00c0 c999 79bf c39f 15bf
00000040: e256 1cc0 4ee9 a6bf b235 f53f e02f b33f
00000050: 9baa 0ebf 42ab 9bbf c30d eabe 353a 8b3d
00000060: de2e 03c0 c095 673d 1a87 22c0 6e9d 3ebd
00000070: dc50 42bf 99e8 283f 4096 1840 9ddb b4be
00000080: ab1c a23f a539 d23e 1f3a 27c0 343f 883e
00000090: d8ba a73f 7c3e 21bf 84ac da3e 236a 363f
000000a0: 2755 65c0 507d 88bd 5ecd 533f fcd4 3d3f
000000b0: e6f6 00bf aa67 48bf 1bd9 10c0 178c 913f
000000c0: fd9b debc dcf2 a63f 10b6 f7be 8bff 20bd
000000d0: 83b8 95bf 3bf1 82be a74e fe3f 22e2 8a3f
000000e0: d3ba bdbe 65af 5fc0 4896 1dbf b1b9 1bbf
000000f0: f2fd 0ac0 b505 f8bf a6d3 c93e 68ec 1040
00000100: 592f 09bf 46ba 71bf 2c7e 60be 00de 94bf
00000110: d606 96be 6cf0 173f 4cdb a5bf 211f 76bf
00000120: d331 9cbc cae4 87bf 732c 28c0 6dac 083f
00000130: 3579 f83d f66b 62c0 afa5 06c0 495f 84be
00000140: 4717 45c0 f317 0dc0 962b 36c0 074b c3bf
00000150: 1782 a83d a43c c33f d4d9 433f 1054 afbf
00000160: f02f 55bf 1923 d83e 99f1 25bf ceb3 29c0
00000170: ac2e 20bf efa6 00c0 2ddf 12c0 21cc 1ac0
00000180: 40ad 023f e745 46c0 441c a2bf 8ee5 063f
00000190: 3c40 e1bf 724e 733f 93b0 0940 ad2e c7bf
000001a0: bd60 c2be c485 203f f405 fc3c f2e9 f9bf
000001b0: 4a52 04bf ac0d 2bbf bacf 20be 3e15 b4bf
000001c0: dfca 91bd 79c8 87bf ac20 afbf 5b51 b7bf
000001d0: 80e3 193f a512 0d3f e9b7 1140 32c5 50c0
000001e0: 8245 8e3f 0597 023f 5ca1 b0bf cf8d 2dbd
000001f0: ad23 4f3f 4abe 633f c220 af3f c54c 1b3f
00000200: 1fea e23f 9318 863f cc04 dcbe d4a1 8dbe
00000210: 8ed3 073f e3d9 80c0 4182 04c0 49b3 3abf
00000220: 16ce dd3f 8935 8a3e 272a e53f 751e 96be
00000230: 5a20 64bf 89fa 2a3f a475 9cbf dda7 a4bf
00000240: 2434 d63f f1f8 1a40 d334 d53e 5ada 0dc0
00000250: d55b 0240 1a45 c1be 1f18 ff3f 8e6f d23f
00000260: 3e3e 7abf ea6a 19c0 6122 09c0 e2cf 3cbf
00000270: 174d 66bf cfef 123f 3e24 14c0 a79f 983f
00000280: a10f 7fbf 89a0 2e3d 6fc5 3abf 2995 7bbf
00000290: 0ab3 eabd 9068 0340 8a9f 0040 18c5 9d3f
000002a0: ff91 89be ac8f 5ec0 f711 663f c38c 4d3f
000002b0: 727d 0ac0 02d1 2abf 5d6f c23f c9e4 a83e
000002c0: 61ed 3fbe 841d 7f3f 3251 b3bf a4df f4bf
000002d0: 9809 abbf f3d2 743f 75ed 163b 143a 683f
000002e0: d18f 42bf 1e39 1c3f 0fcb ccc0 8491 bcbf
000002f0: 8cb8 34bf 435d 99bf 36e3 62bc 3644 f03f
00000300: b231 f6bf fdf2 9a3e 4dba c23f 8bab 17bf
00000310: 2c3e 963f 50dd 82c0 bd28 1d3e edd0 ccbc

bn1.running_var f4 [200]
11.398316 12.722437 12.254925 11.435649 13.505592 9.2929325 19.12408 8.946718
12.352322 7.2509847 8.691567 12.757319 9.551083 13.308724 11.3147955 11.322236
11.161696 6.636602 12.001988 11.36441 9.516137 14.442443 12.797623 9.990032
11.065595 9.211978 10.588703 14.250144 8.913523 10.842392 10.214205 8.692896
11.069875 9.603862 7.518897 12.758127 9.515615 5.993516 9.394085 10.424013
13.8097315 9.958896 10.476073 11.049306 7.1344695 6.9057226 10.884454 10.797346
9.934282 10.668475 8.092615 6.6358094 8.064212 8.423115 9.19134 3.8344743
16.969378 10.597446 10.257766 10.997006 18.254837 8.4098015 10.911548 8.759359
13.734365 7.9472528 8.042234 7.813136 13.3373375 10.48767 6.6028385 7.7638636
7.358873 12.686981 7.587158 11.28578 10.71852 12.879163 10.209019 10.422179
7.7604733 11.086387 8.577128 12.312229 9.792878 17.5913 14.215564 13.76299
11.2135515 10.236989 10.371388 16.848722 8.586612 11.254843 16.199184 10.403865
12.365343 16.144356 13.175067 8.639959 8.713362 11.408997 8.888025 11.608961
18.085684 8.43236 7.516932 12.063259 8.646788 11.263447 5.488781 16.074162
14.519646 10.567354 12.482256 15.418456 9.609002 6.740185 9.69025 13.328806
14.793326 10.05479 7.933292 9.867306 11.760726 8.72745 10.304831 12.725388
12.090332 13.207369 8.2645035 13.616765 8.286269 9.565904 18.354237 6.0705123
14.564058 9.192147 12.048432 10.978342 13.262398 8.126504 10.534728 14.337385
11.830925 9.306057 8.993041 20.76677 8.546664 19.200235 12.141628 7.092509
12.761824 8.17094 14.984596 10.862767 9.426068 11.853928 8.484366 5.901655
15.312998 11.694623 10.691873 10.060331 11.152821 8.794782 14.1025915 12.39397
7.650385 12.650072 13.337627 18.751724 14.899602 7.8446827 13.432143 12.13609
11.810184 15.0658455 8.641038 8.375015 10.562132 9.258583 6.910212 11.807137
21.820696 8.508319 10.172476 8.469714 7.9197707 11.910978 12.553821 7.5718126
16.730984 8.496164 10.641224 10.872016 13.673623 15.921757 7.862261 8.748265
00000000: 815f 3641 1a8f 4b41 2c14 4441 6bf8 3641
00000010: e816 5841 daaf 1441 1efe 9841 c225 0f41
00000020: 1ca3 4541 1108 e840 a910 0b41 fb1d 4c41
00000030: 3cd1 1841 89f0 5441 6709 3541 e127 3541
00000040: 4f96 3241 0b5f d440 2508 4041 a0d4 3541
00000050: 1942 1841 3f14 6741 10c3 4c41 2cd7 1f41
00000060: ad0c 3141 4364 1341 546b 2941 9700 6441
00000070: ca9d 0e41 707a 2d41 626d 2341 1a16 0b41
00000080: 351e 3141 6ba9 1941 ce9a f040 4a21 4c41
00000090: f63f 1841 e2ca bf40 2c4e 1641 c2c8 2641
000000a0: a9f4 5c41 a357 1f41 ff9d 2741 f5c9 3041
000000b0: 934d e440 aefb dc40 b926 2e41 eec1 2c41
000000c0: d2f2 1e41 13b2 2a41 5a7b 0141 8d58 d440
000000d0: 0307 0141 14c5 0641 bb0f 1341 0768 7540
000000e0: 49c1 8741 248f 2941 cf1f 2441 bdf3 2f41
000000f0: e809 9241 8c8e 0641 b395 2e41 5626 0c41
00000100: f6bf 5b41 e54f fe40 feac 0041 3605 fa40
00000110: bc65 5541 7fcd 2741 744a d340 9271 f840
00000120: e37b eb40 e0fd 4a41 00ca f240 8e92 3441
00000130: 0f7f 2b41 0d11 4e41 2458 2341 3fc1 2641
00000140: cc55 f840 d761 3141 eb3b 0941 e4fe 4441
00000150: a1af 1c41 fbba 8c41 f372 6341 3535 5c41
00000160: b56a 3341 b5ca 2341 35f1 2541 2fca 8641
00000170: c362 0941 d613 3441 ee97 8141 3b76 2641
00000180: 72d8 4541 a427 8141 13cd 5241 463d 0a41
00000190: ee69 0b41 408b 3641 5a35 0e41 4ebe 3941
000001a0: 7baf 9041 f2ea 0641 b58a f040 1c03 4141
000001b0: 3e59 0a41 1437 3441 18a4 af40 e297 8041
000001c0: 7850 6841 e213 2941 52b7 4741 ffb1 7641
000001d0: 79be 1941 98af d740 440b 1b41 ca42 5541
000001e0: 77b1 6c41 6be0 2041 87dd fd40 7ce0 1d41
000001f0: ef2b 3c41 a3a3 0b41 96e0 2441 309b 4b41
00000200: 0072 4141 6251 5341 683b 0441 45de 5941
00000210: 8f94 0441 f10d 1941 7ad5 9241 a341 c240
00000220: 6206 6941 0913 1341 61c6 4041 4aa7 2f41
00000230: c832 5441 2906 0241 3f8e 2841 ee65 6541
00000240: 784b 3d41 9ce5 1441 7fe3 0f41 5822 a641
00000250: 23bf 0841 159a 9941 1c44 4241 d5f5 e240
00000260: 6e30 4c41 2cbc 0241 e8c0 6f41 e5cd 2d41
00000270: 2dd1 1641 b0a9 3d41 f7bf 0741 5cda bc40
00000280: 0a02 7541 2d1d 3b41 e911 2b41 1ef7 2041
00000290: f471 3241 6db7 0c41 37a4 6141 b34d 4641
000002a0: f4cf f440 b266 4a41 ec66 5541 8803 9641
000002b0: c564 6e41 a407 fb40 0fea 5641 6d2d 4241
000002c0: 83f6 3c41 b40d 7141 b141 0a41 1000 0641
000002d0: 7efe 2841 2823 1441 7520 dd40 08ea 3c41
000002e0: c990 ae41 1322 0841 76c2 2241 f383 0741
000002f0: c36e fd40 5e93 3e41 73dc 4841 4a4c f240
00000300: 0ed9 8541 4af0 0741 7442 2a41 c7f3 2d41
00000310: 29c7 5a41 84bf 7e41 a497 fb40 e5f8 0b41

fc2.weight f4 [100, 200]
-0.071641825 0.07358517 0.053735707 -0.12264579 0.037809316 0.051955644 -0.093239345 0.05560298
0.025247237 0.00039733617 -0.073382825 0.0011315249 -0.080143616 -0.046479538 0.015505017 -0.19511369
0.065085 -0.04504263 0.06440296 2.4448855e-05 -0.0916542 -0.029655764 0.033016484 -0.09445799
-0.030515948 0.0037241075 -0.035478693 0.059650466 0.10660291 -0.069880866 -0.023813894 0.1409625
0.066626795 -0.01868858 0.030915089 0.1187079 -0.09585204 0.007805371 0.057151068 -0.017503269
0.07562303 -0.004910171 -0.098855585 -0.1212525 0.036002006 -0.035623588 0.08006108 -0.058651038
0.10893581 0.121437535 -0.058809236 0.028671458 0.07122812 0.06903675 -0.0024276848 -0.08976719
0.013147507 -0.010678581 -0.20507143 -0.070999004 -0.064675465 -0.11553781 0.13455868 0.06170433
0.08886764 -0.1505489 0.04550557 0.1692803 -0.043740533 0.09836258 0.030005677 -0.014346628
0.056448508 0.08471621 -0.03246282 0.11002007 -0.041522846 0.051163513 0.0010629715 0.032864258
-0.109006435 0.022107014 0.04577494 0.108616546 -0.054457594 0.062247384 0.08099459 0.028224692
-0.090082064 0.02848524 -0.15552528 0.15438066 0.08614758 0.029723966 0.020642526 0.046501525
-0.03994359 0.10537763 -0.017960958 -0.045721803 -0.031093836 -0.09907732 0.18978658 -0.039417706
-0.02954454 0.033298284 0.018983897 -0.030478293 -0.12654567 0.02400302 -0.053286098 0.05472142
-0.09081614 -0.04953785 -0.15479071 0.10023597 -0.1019854 -0.13484387 -0.085777804 -0.022565247
-0.21775737 -0.021226352 -0.01627157 0.06926132 0.057159144 -0.0036037262 -0.00054146326 0.09160727
0.077575274 -0.013716398 -0.063141674 -0.0195239 -0.034434114 0.06120636 -0.009106412 0.10568476
-0.04236153 -0.01705478 -0.06965793 -0.08676439 -0.026788797 0.068968415 -0.014097995 -0.037599992
-0.06928249 0.07651014 -0.041306023 -0.05717797 0.05504515 -0.1051618 0.044708855 -0.16479565
-0.036278777 0.07169464 -0.00437912 -0.011614575 0.008036991 -0.1479078 0.057178397 0.08524702
-0.056014623 -0.014083988 0.03346637 0.020089136 -0.039177824 0.110939406 0.0927918 -0.058875084
-0.07469141 0.105461515 -0.01774878 -0.037083272 -0.08515424 -0.04683156 0.040396217 0.044760246
0.13161902 0.034776926 0.12662977 0.09802978 -0.004357172 -0.0010424729 0.08998421 0.05014393
-0.07762503 0.0060991985 0.04288081 -0.080633916 -0.09577997 -0.12728149 -0.05923134 0.06464678
-0.051470667 -0.21882266 0.15202484 -0.039808664 -0.21894822 0.021874037 0.08104302 -0.02634389
0.005315082 0.054653544 0.10003496 -0.02152555 -0.026284037 -0.046665847 -0.04704192 0.13484876
-0.007983902 0.06463537 -0.0076731704 -0.04564313 -0.1168072 -0.061522495 -0.006137995 -0.03819753
0.054370176 0.0076538 -0.0036408613 -0.020713193 -0.09392596 -0.017076707 -0.12462398 -0.015268206
-0.09468119 -0.076025255 -0.044790372 0.08033394 0.13240923 -0.04586162 -0.006313705 0.17798628
0.108955294 -0.053367957 0.015316686 0.07035745 -0.03615181 -0.039295986 0.115553215 0.04269779
0.12969232 0.048426453 0.07260925 0.048966333 0.053429924 -0.06967443 -0.033242863 0.024982058
0.054893546 0.10172087 0.023602951 0.11266848 -0.02195595 0.06423057 0.07981142 0.023447018
00000000: f3b8 92bd d2b3 963d f919 5c3d b72d fbbd
00000010: f1dd 1a3d 71cf 543d 45f4 bebd f3bf 633d
00000020: 4bd3 ce3c 8f51 d039 bc49 96bd ad4f 943a
00000030: 5622 a4bd 5461 3ebd c108 7e3c e2cb 47be
00000040: 494b 853d 9f7e 38bd b3e5 833d 8417 cd37
00000050: 32b5 bbbd a5f0 f2bc 4b3c 073d 3173 c1bd
00000060: 95fc f9bc 2810 743b 1b52 11bd 0c54 743d
00000070: a052 da3d b31d 8fbd 5b15 c3bc 7958 103e
00000080: a173 883d cb18 99bc a441 fd3c 211d f33d
00000090: 134e c4bd 33c4 ff3b 3d17 6a3d 0463 8fbc
000000a0: 3fe0 9a3d 80e5 a0bb cc74 cabd 3b53 f8bd
000000b0: d776 133d 0aea 11bd 10f7 a33d 123c 70bd
000000c0: bd19 df3d 3eb4 f83d f4e1 70bd 68e0 ea3c
000000d0: 0ce0 913d 2463 8d3d cb19 1fbb dcd7 b7bd
000000e0: a468 573c 37f5 2ebc 3ffe 51be ed67 91bd
000000f0: 9274 84bd 169f ecbd c0c9 093e aebd 7c3d
00000100: 3d00 b63d 7e29 1abe 0c64 3a3d d157 2d3e
00000110: 4629 33bd 5272 c93d 77ce f53c 1f0e 6bbc
00000120: 8d36 673d b17f ad3d bcf7 04bd 3452 e13d
00000130: dc13 2abd d590 513d 6853 8b3a ac9c 063d
00000140: c43e dfbd c519 b53c 817e 3b3d 5a72 de3d
00000150: ed0e 5fbd 1df7 7e3d 7ee0 a53d 7837 e73c
00000160: f27c b8bd e159 e93c 0542 1fbe f715 1e3e
00000170: 246e b03d ad7f f33c 841a a93c 6278 3e3d
00000180: e49b 23bd 3ad0 d73d dc22 93bc c946 3bbd
00000190: 80b8 febc 0de9 cabd 6a57 423e 7674 21bd
000001a0: 6407 f2bc c863 083d 1e84 9b3c 9dad f9bc
000001b0: 3095 01be fba1 c43c 8642 5abd 9123 603d
000001c0: d0fd b9bd 33e8 4abd 7581 1ebe 8448 cd3d
000001d0: b9dd d0bd 8314 0abe 46ac afbd c1da b8bc
000001e0: cafb 5ebe e3e2 adbc f54b 85bc e1d8 8d3d
000001f0: b51f 6a3d 7e2c 6cbb fcf0 0dba 989c bb3d
00000200: c9df 9e3d beba 60bc 6c50 81bd 96f0 9fbc
00000210: c90a 0dbd 85b3 7a3d 0f33 15bc 4071 d83d
00000220: 4983 2dbd 77b6 8bbc d1a8 8ebd 87b1 b1bd
00000230: 2e74 dbbc 503f 8d3d 47fb 66bc 7302 1abd
00000240: fae3 8dbd 59b1 9c3d 8130 29bd 7233 6abd
00000250: 0677 613d 125f d7bd a220 373d 31c0 28be
00000260: 0e99 14bd a4d4 923d b97e 8fbb 0f4b 3ebc
00000270: 95ad 033c 2475 17be e533 6a3d fd95 ae3d
00000280: 976f 65bd 87c0 66bc 0814 093d f991 a43c
00000290: ed78 20bd 3334 e33d a109 be3d 0027 71bd
000002a0: cff7 98bd 35fc d73d e465 91bc a1e4 17bd
000002b0: 5965 aebd 73d2 3fbd 8176 253d 8556 373d
000002c0: 23c7 063e 4072 0e3d 3cab 013e d6c3 c83d
000002d0: 9cc6 8ebb 96a3 88ba a449 b83d b963 4d3d
000002e0: dff9 9ebd c9db c73b caa3 2f3d 6523 a5bd
000002f0: 4a28 c4bd 1456 02be 909c 72bd 8865 843d
00000300: e8d2 52bd 0c13 60be 66ac 1b3e 690e 23bd
00000310: f633 60be 2e31 b33c e2f9 a53d 24cf d7bc
00000320: 242a ae3b 65dc 5f3d 21df cc3d 5a56 b0bc
00000330: 9f51 d7bc b024 3fbd 07af 40bd cb15 0a3e
00000340: e9ce 02bc 8d5f 843d 386f fbbb 4af4 3abd
00000350: 9d38 efbd 03ff 7bbd 3c21 c9bb 0375 1cbd
00000360: 43b3 5e3d bacc fa3b 849b 6ebb b7ae a9bc
00000370: 415c c0bd 73e4 8bbc db3a ffbd 7f27 7abc
00000380: 36e8 c1bd 21b3 9bbd 1c76 37bd 1f86 a43d
00000390: 4996 073e 65d9 3bbd 32e3 cebb 0942 363e
000003a0: f423 df3d 5c98 5abd d6f2 7a3c 9117 903d
000003b0: ec13 14bd d4f4 20bd 2aa7 ec3d e1e3 2e3d
000003c0: 10ce 043e d15a 463d 29b4 943d ec90 483d
000003d0: 56d9 5a3d 78b1 8ebd ab29 08bd 2ca7 cc3c
000003e0: 0ed8 603d 0853 d03d fa5a c13c bbbe e63d
000003f0: f7dc b3bc 518b 833d 2b74 a33d f613 c03c

fc2.bias f4 [100]
-0.011644397 -0.020088889 -0.06621907 -0.04549769 0.025084682 -0.08222729 -0.034562647 -0.07831094
0.13957717 -0.071844675 -0.03864851 -0.041969772 -0.02317752 0.08103503 -0.064621925 0.043681335
-0.024653792 -0.05370631 -0.06702622 0.11422986 -0.030593572 -0.060611024 -0.041602675 -0.03122161
-0.034884162 0.0020512487 -0.10948131 -0.057351917 0.015749792 -0.02720435 -0.06837426 0.033243556
0.04232076 0.0030925993 -0.08209174 -0.021299386 -0.026609542 -0.06460202 -0.10708935 -0.03958502
0.03329641 -0.007248706 0.009661679 0.03768973 0.059788708 -0.045774158 -0.037599385 0.043660507
-0.15177028 -0.08161585 0.10572829 0.012524203 -0.025944237 0.02718986 -0.047564335 0.022830006
-0.012863557 -0.07847249 0.035715025 -0.032571442 0.06681769 -0.10305528 -0.078185126 0.00979708
-0.08417794 -0.0076395054 -0.050368432 -0.034002542 0.031857315 -0.16608076 -0.0014797992 -0.02678783
0.022376357 -0.096514985 0.06355322 -0.0022981307 -0.1580617 0.062204503 -0.060707554 -0.01726531
-0.07860149 0.0047553284 -0.08696464 -0.062271528 0.0127125 0.0650074 -0.059010923 -0.032226514
0.046005048 -0.08108485 -0.053330626 -0.15069565 -0.03248131 -0.102640614 0.07064598 -0.03147955
-0.0815285 -0.088285126 -0.01404672 0.069310315
00000000: 24c8 3ebc 7491 a4bc dd9d 87bd c95b 3abd
00000010: 647e cd3c c866 a8bd 9091 0dbd 7c61 a0bd
00000020: 51ed 0e3e 4d23 93bd e64d 1ebd 7fe8 2bbd
00000030: c8de bdbc b2f5 a53d 8058 84bd 33eb 323d
00000040: c0f6 c9bc 26fb 5bbd 0b45 89bd 58f1 e93d
00000050: 5f9f fabc 4443 78bd 9167 2abd 76c4 ffbc
00000060: b2e2 0ebd 3e6e 063b bd37 e0bd d8e9 6abd
00000070: b505 813c a8db debc ce07 8cbd 652a 083d
00000080: 8958 2d3d 35ad 4a3b b71f a8bd 0d7c aebc
00000090: 41fc d9bc 104e 84bd a951 dbbd e723 22bd
000000a0: d161 083d 8e86 edbb 054c 1e3c 8c60 1a3d
000000b0: 01e5 743d af7d 3bbd d001 1abd 5cd5 323d
000000c0: ab69 1bbe 3626 a7bd 1388 d83d 5132 4d3c
000000d0: 0289 d4bc 45bd de3c d2d2 42bd fe05 bb3c
000000e0: abc1 52bc 2fb6 a0bd eb49 123d a269 05bd
000000f0: b7d7 883d a60e d3bd 861f a0bd ef83 203c
00000100: 7c65 acbd d154 fabb 214f 4ebd 4046 0bbd
00000110: d17c 023d 1311 2abe d2f5 c1ba 2772 dbbc
00000120: 9f4e b73c a6a9 c5bd 3128 823d 3c9c 16bb
00000130: edda 21be 26ca 7e3d 7ca8 78bd fb6f 8dbc
00000140: d1f9 a0bd 96d2 9b3b 841a b2bd 6e10 7fbd
00000150: 1748 503c 9a22 853d 70b5 71bd f3ff 03bd
00000160: ca6f 3c3d d00f a6bd 3771 5abd f64f 1abe
00000170: 1f0b 05bd 3e35 d2bd d7ae 903d b3f0 00bd
00000180: 6af8 a6bd d5ce b4bd 3724 66bc 91f2 8d3d

fc3.weight f4 [60, 100]
0.011443598 -0.048994143 -0.06672853 -0.0017874393 0.1116815 0.16855082 0.0500163 0.008672988
-0.07495129 0.24518646 -0.1715477 -0.022296537 0.11288839 0.07053278 -0.045370493 -0.012314865
-0.058204774 0.09287159 -0.1203999 -0.14765434 -0.02707193 0.14719675 -0.0453434 -0.021368628
0.10234343 -0.06291309 0.017329317 0.10889516 0.06701719 0.029068975 0.035940032 -0.018515442
0.06258356 0.045915272 -0.050393287 0.05111687 0.006826546 -0.0008093034 -0.06680055 -0.04171295
0.14698367 -0.05322243 -0.14884973 -0.01963501 -0.026595207 -0.05406502 0.14983098 0.018195238
0.13666253 0.123253755 -0.03718338 0.19949904 -0.035752445 0.001784511 -0.036868468 0.056655493
0.054972447 -0.044773363 0.021685379 -0.0020220983 0.02735458 -0.09998028 0.094411455 0.022351637
-0.0017585625 -0.065729514 -0.074121445 -0.056834847 0.16007261 0.063391425 -0.071471624 0.092235535
0.068169616 -0.16297856 -0.0035401175 0.024887018 0.09461098 0.0948745 0.114389405 0.12359625
0.25082046 0.14036435 -0.17623802 -0.058907293 0.0190085 -0.044189353 -0.064558595 0.05048882
0.13112578 0.090080716 0.1107792 -0.14862674 -0.005906131 -0.008879185 0.05519196 0.0463538
-0.00036784267 0.13390851 -0.1247299 0.06795271 -0.07659749 -0.06158199 -0.013578019 0.008636368
-0.02456 -0.053128485 -0.015027748 0.21715368 -0.012519321 -0.03670065 0.16189006 -0.04362281
0.11050062 0.1419494 -0.06555986 0.19839358 0.054248255 -0.10646087 0.0734151 0.028222663
0.004462347 0.0034867737 0.09590187 0.22538163 -0.038556498 0.064187 0.052476514 0.11007927
0.016166383 -0.06616716 0.05907923 -0.080629975 0.028084546 0.013966006 -0.0022623402 0.011330277
0.026844153 0.042581126 0.051352482 0.019950496 0.069042005 0.015374822 0.056960113 0.12465634
-0.08368418 -0.13018645 0.06675486 -0.011023028 0.10125283 0.16457377 -0.037358686 -0.001863644
-0.15639257 -0.038563468 -0.1040258 -0.101370715 0.038629744 0.005307219 0.097064234 -0.018866342
0.065579966 0.066805266 0.026040195 -0.03825628 0.07478869 -0.019450571 -0.084017195 0.015011965
0.0412092 0.18106616 -0.04962083 0.030192392 -0.1325448 -0.043481432 0.057297286 0.16311762
0.10946187 -0.060415063 0.014539059 -0.06457212 0.12102346 -0.07047059 0.04679524 0.23006946
-0.05768996 0.1270789 -0.038604956 0.033138882 -0.028021747 0.05392795 0.038762048 0.0032190196
-0.026223486 -0.045265026 0.048130225 0.13438699 0.058477562 -0.03142731 0.17472398 -0.10686236
-0.095206074 0.002014203 -0.05669327 0.17773929 -0.01095537 0.042187728 0.022029929 0.040829293
0.07884891 -0.012040979 -0.01835226 -0.08653378 0.21392708 0.00079257315 -0.10353614 -0.07501911
-0.01670559 -0.045516543 0.07395401 0.07752548 -0.116065115 0.043195527 0.04775602 -0.02412638
0.045286734 -0.03034406 -0.069767006 0.016601726 -0.121125974 0.0038607805 -0.034478255 -0.06769701
0.023529451 0.04895595 0.013460257 0.06593718 0.06617812 -0.058150075 0.05231526 0.082819834
0.11173809 -0.072095916 -0.16158155 0.14326017 -0.0052931244 -0.06551633 0.024256554 0.07042951
-0.014799679 0.19658495 -0.08293308 -0.004529922 -0.08277897 -0.007708217 0.11983257 0.0763481
00000000: ee7d 3b3c 15ae 48bd f8a8 88bd 8348 eaba
00000010: 45b9 e43d 9698 2c3e e4dd 4c3d 2619 0e3c
00000020: 1080 99bd 2912 7b3e 33aa 2fbe 3aa7 b6bc
00000030: 0732 e73d 7d73 903d 69d6 39bd 4ac4 49bc
00000040: 2168 6ebd 7633 be3d 3994 f6bd b332 17be
00000050: f4c5 ddbc bfba 163e 00ba 39bd 430d afbc
00000060: 6f99 d13d 94d8 80bd 36f6 8d3c 6d04 df3d
00000070: 4f40 893d 0f22 ee3c db35 133d b2ad 97bc
00000080: cf2b 803d a711 3c3d 3169 4ebd ec5f 513d
00000090: 38b1 df3b 6f27 54ba bace 88bd 33db 2abd
000000a0: e382 163e c3ff 59bd 106c 18be 9ad9 a0bc
000000b0: 31de d9bc 4873 5dbd 4b6d 193e 2e0e 953c
000000c0: 43f1 0b3e 776c fc3d 9a4d 18bd 7a49 4c3e
000000d0: 2871 12bd 41e6 e93a 6403 17bd 970f 683d
000000e0: ca2a 613d 4664 37bd 89a5 b13c 2e85 04bb
000000f0: b616 e03c 76c2 ccbd cb5a c13d c81a b73c
00000100: 917f e6ba 329d 86bd fccc 97bd a8cb 68bd
00000110: 13ea 233e 5dd3 813d b75f 92bd fce5 bc3d
00000120: 839c 8b3d dae3 26be 5101 68bb dcdf cb3c
00000130: 67c3 c13d 904d c23d fe44 ea3d 0820 fd3d
00000140: 8a6b 803e acbb 0f3e bd77 34be c648 71bd
00000150: b7b7 9b3c e5ff 34bd 4c37 84bd 5dcd 4e3d
00000160: d645 063e 3d7c b83d 35e0 e23d 9c31 18be
00000170: 3888 c1bb 007a 11bc f710 623d 7bdd 3d3d
00000180: 02db c0b9 501f 093e 6472 ffbd ca2a 8b3d
00000190: 25df 9cbd 663d 7cbd 5776 5ebc 8e7f 0d3c
000001a0: 0e32 c9bc 419d 59bd f236 76bc 895d 5e3e
000001b0: d71d 4dbc 6c53 16bd 82c6 253e d5ad 32bd
000001c0: 264e e23d 2f5b 113e 3f44 86bd b027 4b3e
000001d0: 6b33 5e3d 2808 dabd a85a 963d 3733 e73c
000001e0: e138 923b 5b82 643b 3368 c43d 71ca 663e
000001f0: 6bed 1dbd 7974 833d 9df1 563d 3e71 e13d
00000200: 5d6f 843c a682 87bd 10fd 713d 5421 a5bd
00000210: 9011 e63c add1 643c c543 14bb a0a2 393c
00000220: 45e8 db3c 8c69 2e3d fb56 523d 396f a33c
00000230: e565 8d3d ade6 7b3c 024f 693d d34b ff3d
00000240: 9d62 abbd 994f 05be c6b6 883d ee99 34bc
00000250: a55d cf3d 0786 283e 6c05 19bd 8445 f4ba
00000260: 6025 20be baf4 1dbd 7b0b d5bd 739b cfbd
00000270: 393a 1e3d 2ee8 ad3b 9dc9 c63d 968d 9abc
00000280: ca4e 863d 33d1 883d 3f52 d53c 9eb2 1cbd
00000290: d02a 993d ce56 9fbc 3511 acbd bff4 753c
000002a0: faca 283d 6869 393e 363f 4bbd 0956 f73c
000002b0: d3b9 07be 9619 32bd 8fb0 6a3d 4e08 273e
000002c0: 8b2d e03d c975 77bd 3c35 6e3c 633e 84bd
000002d0: 26db f73d e252 90bd 5eac 3f3d 5497 6b3e
000002e0: 4f4c 6cbd f920 023e 3b20 1ebd a3bc 073d
000002f0: dd8d e5bc 8ee3 5c3d f4c4 1e3d 30f6 523b
00000300: a3d2 d6bc d267 39bd 3324 453d be9c 093e
00000310: 2b86 6f3d ecb9 00bd d8ea 323e a7da dabd
00000320: 67fb c2bd b800 043b 3437 68bd 4a01 363e
00000330: 277e 33bc 0acd 2c3d 1c78 b43c 9e3c 273d
00000340: 8a7b a13d 8747 45bc 7b57 96bc 9f38 b1bd
00000350: b30f 5b3e afc4 4f3a c10a d4bd 9fa3 99bd
00000360: 29da 88bc 8e6f 3abd 3375 973d aec5 9e3d
00000370: 8cb3 edbd cbed 303d d19b 433d b0a4 c5bc
00000380: 957e 393d 1b94 f8bc 01e2 8ebd 5800 883c
00000390: e510 f8bd 2605 7d3b 1239 0dbd bba4 8abd
000003a0: d6c0 c03c 0986 483d 6988 5c3c 120a 873d
000003b0: 6588 873d c62e 6ebd 8748 563d 729d a93d
000003c0: f1d6 e43d 06a7 93bd a275 25be cbb2 123e
000003d0: f271 adbb 6d2d 86bd aeb5 c63c 593d 903d
000003e0: 5a7a 72bc 914d 493e d2d8 a9bd bd6f 94bb
000003f0: 0588 a9bd 3695 fcbb c76a f53d 655c 9c3d

fc3.bias f4 [60]
0.08889614 -0.01976011 -0.069757566 -0.024068497 0.09414536 0.091660514 0.025807133 -0.050070915
0.008091155 0.005491567 0.011455626 -0.017281776 0.03530784 0.039854456 0.08944334 -0.027983014
0.09180938 -0.072480395 0.016649343 0.008722887 -0.09097765 -0.024502994 -0.018976482 -0.03997586
0.010030955 0.046437636 0.081027806 -0.05450703 -0.05828366 -0.087867685 0.052175492 -0.035911057
-0.0073499223 -0.034894783 -0.06662211 0.08713811 0.031585492 -0.028309606 -0.0401496 0.08584894
-0.079168424 0.044148624 -0.014944891 0.024648873 -0.08844084 -0.07121601 0.06780279 0.09917099
-0.039020058 -0.009767767 -0.061895143 -0.034468517 0.009961839 -0.064011246 0.0126065295 -0.046436373
-0.026601955 0.067072034 0.009553883 -0.053277165
00000000: 2e0f b63d f4df a1bc 0edd 8ebd 4c2b c5bc
00000010: 48cf c03d 82b8 bb3d 7b69 d33c 2917 4dbd
00000020: c490 043c 9af2 b33b 61b0 3b3c 8392 8dbc
00000030: f49e 103d 6d3e 233d 122e b73d a23c e5bc
00000040: 8e06 bc3d 9a70 94bd 3464 883c 71ea 0e3c
00000050: 7d52 babd 81ba c8bc 9174 9bbc babd 23bd
00000060: e058 243c 6435 3e3d e8f1 a53d c342 5fbd
00000070: d9ba 6ebd f9f3 b3bd f8b5 553d 7917 13bd
00000080: 9ed7 f0bb d5ed 0ebd 2c71 88bd 7775 b23d
00000090: ca5f 013d 8ce9 e7bc e873 24bd 92d1 af3d
000000a0: 0e23 a2bd 30d5 343d 6bdb 74bc 6fec c93c
000000b0: 7920 b5bd b3d9 91bd 30dc 8a3d 291a cb3d
000000c0: 7fd3 1fbd fc08 20bc c385 7dbd dc2e 0dbd
000000d0: fb36 233c 5418 83bd 9e8b 4e3c 1134 3ebd
000000e0: 58ec d9bc 105d 893d e487 1c3c 2839 5abd

bn2.weight f4 [60]
1.2461046 1.1908548 1.2090931 1.295717 1.2216333 1.2181739 1.2275878 1.3326876
1.2187487 1.252481 1.2692437 1.2853217 1.1711009 1.1497086 1.3088645 1.3162676
1.1931785 1.1877499 1.2020339 1.2683463 1.2098347 1.181054 1.2578856 1.2886002
1.2146295 1.179211 1.2428995 1.2486641 1.2430933 1.2804289 1.1662176 1.3060986
1.2066181 1.2347045 1.2140449 1.1518381 1.1887903 1.2333767 1.2091421 1.3243759
1.2469554 1.146568 1.193355 1.3367658 1.2822765 1.3303459 1.152991 1.3024124
1.2253357 1.1471742 1.2024205 1.2035025 1.2512795 1.2643352 1.2260857 1.2100351
1.1702021 1.2943125 1.2037332 1.1661837
00000000: 5b80 9f3f ee6d 983f 90c3 9a3f 0eda a53f
00000010: 7b5e 9c3f 1fed 9b3f 9921 9d3f 8295 aa3f
00000020: f5ff 9b3f 4c51 a03f 9476 a23f 6c85 a43f
00000030: a2e6 953f a729 933f df88 a73f 757b a83f
00000040: 13ba 983f 3008 983f 3fdc 993f 2c59 a23f
00000050: dddb 9a3f c72c 973f 6502 a13f daf0 a43f
00000060: fb78 9b3f 63f0 963f 5517 9f3f 3ad4 9f3f
00000070: ae1d 9f3f 18e5 a33f 9e46 953f 3d2e a73f
00000080: 7672 9a3f cc0a 9e3f d365 9b3f 6e6f 933f
00000090: 482a 983f 4adf 9d3f 2bc5 9a3f 2685 a93f
000000a0: 3c9c 9f3f bdc2 923f dbbf 983f 241b ab3f
000000b0: a321 a43f c648 aa3f 3695 933f 73b5 a63f
000000c0: cdd7 9c3f 9bd6 923f eae8 993f 5f0c 9a3f
000000d0: ed29 a03f bcd5 a13f 60f0 9c3f 6ee2 9a3f
000000e0: 2fc9 953f 08ac a53f ee13 9a3f 8245 953f

bn2.bias f4 [60]
0.10400438 0.1075445 0.23035209 0.15024911 0.06297236 0.17807195 0.051348813 0.16487399
0.1894437 0.14599617 0.15264982 0.19886754 0.16183434 0.007713113 0.14538328 0.19413427
0.1223935 0.12604728 0.14288756 0.08872546 0.15006815 0.07370296 0.18537115 0.1532704
0.01972721 0.08966385 0.12264863 0.17365792 0.11524385 0.15931635 0.08611344 0.20477587
0.059285015 0.104623444 0.09209087 0.09134969 0.06610831 0.1389396 0.2069424 0.13657394
0.17731413 0.053157974 0.11220445 0.09712329 0.12575166 0.16364527 0.044456553 0.10036271
0.11548475 0.030757021 0.1292588 0.15342294 0.097221375 0.20732178 0.014610371 0.06578538
0.06265541 0.0916215 0.06782409 0.064576715
00000000: 4000 d53d 4a40 dc3d 6be1 6b3e e7da 193e
00000010: a7f7 803d 7e58 363e 2253 523d bad4 283e
00000020: 87fd 413e 0580 153e 3c50 1c3e efa3 4b3e
00000030: e7b7 253e 48be fc3b 5bdf 143e 22cb 463e
00000040: 71a9 fa3d 8a12 013e 1e51 123e b2b5 b53d
00000050: 77ab 193e 94f1 963d efd1 3d3e eaf2 1c3e
00000060: f59a a13c aea1 b73d 342f fb3d 62d3 313e
00000070: f804 ec3d d323 233e 3e5c b03d c4b0 513e
00000080: d8d4 723d d144 d63d 239a bc3d 8c15 bb3d
00000090: cb63 873d 2f46 0e3e b5e8 533e 0ada 0b3e
000000a0: d691 353e 2dbc 593d 72cb e53d 93e8 c63d
000000b0: 0bc5 003e a092 273e 1318 363d f78a cd3d
000000c0: 4583 ec3d 26f6 fb3c 6b5c 043e e71a 1d3e
000000d0: 001c c73d 294c 543e 5660 6f3c 7cba 863d
000000e0: 7b51 803d 0ea4 bb3d 5be7 8a3d cc40 843d
